revin_transformer_model.pth (torch, 732575 bytes, 76 tensors)

mom_missing_token f4 [1, 1, 8]
0	0xbadd6a51	-0.0016892647
1	0x3b64e30f	0.0034925377
2	0xbb5320bb	-0.0032215554
3	0x3cb33442	0.021875504
4	0x3bc38db3	0.0059678196
5	0xbc8d43a5	-0.01724417
6	0x3bf9481c	0.007607473
7	0xbca975c1	-0.020686032

child_missing_token f4 [1, 1, 8]
0	0xbb676342	-0.0035306965
1	0xbc41a153	-0.011818248
2	0x3c0ffd9b	0.008788492
3	0xbd1afdd3	-0.037839722
4	0x3cbd477c	0.023105375
5	0xbc543900	-0.012953043
6	0x3d2b557d	0.041829575
7	0x3b99a259	0.004688543

input_proj_mom.weight f4 [8, 2]
0	0x3d00af5b	0.031417232
1	0xbe96aeed	-0.29430333
2	0x3ec59e1c	0.3859719
3	0x3ed2f6a8	0.4120381
4	0xbeadf7c1	-0.33978084
5	0x3f26ae73	0.6510994
6	0xbf027898	-0.5096526
7	0x3e3a2bbb	0.18180744
8	0xbeeb669f	-0.4597673
9	0x3ef1a618	0.47197032
10	0x3ea259f5	0.31709257
11	0xbf01b06f	-0.5065984
12	0x3e71fef0	0.23632407
13	0xbf27dc1f	-0.65570253
14	0x3f1f11bf	0.62136453
15	0x3f0a9354	0.54131055

input_proj_mom.bias f4 [8]
0	0xbf0ca0e1	-0.5493298
1	0xbf053d6a	-0.52046835
2	0xbe823419	-0.25430372
3	0x3eb90a64	0.3614074
4	0xbe40e37d	-0.1883678
5	0x3e0fb91a	0.14035454
6	0xbe65a36c	-0.22425622
7	0x3de3de83	0.11126425

input_proj_child.weight f4 [8, 2]
0	0xbee14e3f	-0.4400501
1	0x3dbeba39	0.09312863
2	0xbe88199c	-0.26582038
3	0xbf0d8392	-0.55278885
4	0xbf2fccfa	-0.68672144
5	0x3e2d06a1	0.1689706
6	0xbd687842	-0.05675531
7	0xbe889227	-0.26674005
8	0xbe47c719	-0.19509543
9	0x3db60b0c	0.08888826
10	0xbf0258de	-0.5091685
11	0xbef8f2c7	-0.48622724
12	0xbe45e441	-0.19325353
13	0xbed9ac52	-0.42514282
14	0x3f08fbfb	0.5350949
15	0xbec61970	-0.38691282

input_proj_child.bias f4 [8]
0	0xbd731052	-0.059341736
1	0xbf097d74	-0.5370705
2	0xbf0fce7e	-0.5617446
3	0x3dd021d6	0.10162704
4	0x3edfa53d	0.43680754
5	0xbea06256	-0.31325024
6	0x3f0a04dc	0.53913665
7	0x3ea91817	0.33026192

pos_encoder.pe f4 [1, 5000, 16]
0	0x00000000	0.0
1	0x3f800000	1.0
2	0x00000000	0.0
3	0x3f800000	1.0
4	0x00000000	0.0
5	0x3f800000	1.0
6	0x00000000	0.0
7	0x3f800000	1.0
8	0x00000000	0.0
9	0x3f800000	1.0
10	0x00000000	0.0
11	0x3f800000	1.0
12	0x00000000	0.0
13	0x3f800000	1.0
14	0x00000000	0.0
15	0x3f800000	1.0
16	0x3f576aa4	0.84147096
17	0x3f0a5141	0.54030234
18	0x3e9f393e	0.3109836
19	0x3f734e6b	0.9504153
20	0x3dcc7576	0.099833414
21	0x3f7eb898	0.9950042
22	0x3d01815b	0.031617504
23	0x3f7fdf3c	0.99950004
24	0x3c23d657	0.009999833
25	0x3f7ffcb9	0.99995
26	0x3b4f3e1c	0.0031622713
27	0x3f7fffac	0.999995
28	0x3a83126d	0.0009999998
29	0x3f7ffff8	0.9999995
30	0x39a5cb61	0.00031622782
31	0x3f7fffff	0.99999994
32	0x3f68c7b7	0.9092974
33	0xbed51133	-0.41614684
34	0x3f17541b	0.5911271
35	0x3f4e7bec	0.8065784
36	0x3e4b6ff8	0.19866931
37	0x3f7ae5a5	0.9800666
38	0x3d8170c8	0.063203394
39	0x3f7f7cf9	0.9980007
40	0x3ca3d43e	0.019998666
41	0x3f7ff2e5	0.9998
42	0x3bcf3dd8	0.006324511
43	0x3f7ffeb1	0.99998003
44	0x3b031268	0.0019999985
45	0x3f7fffdf	0.99999803
46	0x3a25cb60	0.0006324556
47	0x3f7ffffd	0.9999998
48	0x3e1081c3	0.14112
49	0xbf7d7026	-0.9899925
50	0x3f5009c2	0.8126489
51	0x3f152f58	0.58275366
52	0x3e974e6c	0.2955202
53	0x3f7490ef	0.9553365
54	0x3dc1ffc0	0.094726086
55	0x3f7ed94f	0.99550337
56	0x3cf5b91f	0.0299955
57	0x3f7fe283	0.99955004
58	0x3c1b6e0d	0.009486687
59	0x3f7ffd0d	0.999955
60	0x3b449b92	0.0029999954
61	0x3f7fffb5	0.9999955
62	0x3a78b110	0.00094868336
63	0x3f7ffff9	0.9999996
64	0xbf41bdcf	-0.7568025
65	0xbf275530	-0.6536436
66	0x3f741dde	0.95358074
67	0x3e9a2eb1	0.30113748
68	0x3ec761d7	0.38941833
69	0x3f6bcaa7	0.921061
70	0x3e012e88	0.12615407
71	0x3f7df469	0.99201065
72	0x3d23cbdb	0.039989334
73	0x3f7fcb94	0.9992001
74	0x3c4f3cc9	0.01264877
75	0x3f7ffac2	0.99992
76	0x3b831257	0.003999989
77	0x3f7fff7a	0.999992
78	0x3aa5cb5e	0.0012649109
79	0x3f7ffff3	0.9999992
80	0xbf757c10	-0.9589243
81	0x3e913c2c	0.2836622
82	0x3f7ffc7f	0.99994653
83	0xbc2972e9	-0.010342338
84	0x3ef57743	0.47942552
85	0x3f60a940	0.87758255
86	0x3e213c1d	0.15745588
87	0x3f7cce81	0.987526
88	0x3d4cb6f4	0.049979165
89	0x3f7fae19	0.99875027
90	0x3c81857e	0.015810724
91	0x3f7ff7cf	0.999875
92	0x3ba3d6dd	0.004999979
93	0x3f7fff2e	0.9999875
94	0x3acf3e33	0.0015811383
95	0x3f7fffeb	0.99999875
96	0xbe8f0f8c	-0.2794155
97	0x3f75cdb8	0.96017027
98	0x3f72784e	0.9471482
99	0xbea43f6d	-0.3207964
100	0x3f108c68	0.5646424
101	0x3f534932	0.8253356
102	0x3e41206e	0.18860027
103	0x3f7b67e3	0.98205394
104	0x3d759cd1	0.059964005
105	0x3f7f8a12	0.99820054
106	0x3c9b6c43	0.018972522
107	0x3f7ff434	0.99982
108	0x3bc49b58	0.0059999637
109	0x3f7ffed2	0.999982
110	0x3af8b108	0.0018973658
111	0x3f7fffe2	0.9999982
112	0x3f283046	0.6569866
113	0x3f40ffbd	0.75390226
114	0x3f4ce86e	0.8004216
115	0xbf1974bc	-0.5994375
116	0x3f24eb72	0.6442176
117	0x3f43ccb3	0.7648422
118	0x3e60d350	0.2195561
119	0x3f79c0ea	0.9755999
120	0x3d8f3e32	0.06994285
121	0x3f7f5f81	0.997551
122	0x3cb552a2	0.022134129
123	0x3f7feff2	0.999755
124	0x3be55fc5	0.006999942
125	0x3f7ffe65	0.9999755
126	0x3b1111ed	0.0022135929
127	0x3f7fffd7	0.99999756
128	0x3f7d4695	0.98935825
129	0xbe14fdf6	-0.14550003
130	0x3f13067e	0.5743178
131	0xbf5191e5	-0.8186324
132	0x3f37a4a5	0.717356
133	0x3f325b5f	0.6967067
134	0x3e802651	0.25029233
135	0x3f77da02	0.9681703
136	0x3da3aa50	0.07991469
137	0x3f7f2e65	0.9968017
138	0x3ccf388a	0.025295515
139	0x3f7feb08	0.99968004
140	0x3c031212	0.007999914
141	0x3f7ffde7	0.999968
142	0x3b25cb55	0.0025298197
143	0x3f7fffca	0.9999968
144	0x3ed30132	0.4121185
145	0xbf693fd5	-0.91113025
146	0x3e951fee	0.29125923
147	0xbf74e6a2	-0.9566442
148	0x3f48881c	0.78332686
149	0x3f1f21d5	0.62161
150	0x3e8fc22d	0.28077832
151	0x3f75b3a9	0.95977265
152	0x3db8123e	0.089878544
153	0x3f7ef6c2	0.9959527
154	0x3ce91dea	0.028456647
155	0x3f7fe576	0.99959505
156	0x3c13743a	0.008999879
157	0x3f7ffd59	0.9999595
158	0x3b3a84bc	0.0028460464
159	0x3f7fffbc	0.99999595
160	0xbf0b44f8	-0.5440211
161	0xbf56cd64	-0.8390715
162	0xbca97097	-0.02068357
163	0xbf7ff1fb	-0.9997861
164	0x3f576aa4	0.84147096
165	0x3f0a5141	0.54030234
166	0x3e9f393d	0.31098357
167	0x3f734e6b	0.9504153
168	0x3dcc7576	0.099833414
169	0x3f7eb898	0.9950042
170	0x3d018159	0.031617496
171	0x3f7fdf3c	0.99950004
172	0x3c23d657	0.009999833
173	0x3f7ffcb9	0.99995
174	0x3b4f3e22	0.0031622727
175	0x3f7fffac	0.999995
176	0xbf7fff5c	-0.9999902
177	0x3b910572	0.004425698
178	0xbea9411f	-0.33057496
179	0xbf719b8d	-0.94377977
180	0x3f64262a	0.89120734
181	0x3ee83dc3	0.4535962
182	0x3eae878b	0.34087786
183	0x3f70aae4	0.9401076
184	0x3de0d372	0.1097783
185	0x3f7e73e8	0.9939561
186	0x3d0e7368	0.03477803
187	0x3f7fd85b	0.9993951
188	0x3c343869	0.010999777
189	0x3f7ffc09	0.9999395
190	0x3b63f787	0.003478499
191	0x3f7fff9b	0.999994
192	0xbf095cd8	-0.53657293
193	0x3f5806d0	0.84385395
194	0xbf1b9124	-0.6076834
195	0xbf4b4f56	-0.7941793
196	0x3f6e9a1d	0.9320391
197	0x3eb986f7	0.36235783
198	0x3ebda92c	0.3704313
199	0x3f6dc9c3	0.9288599
200	0x3df52bac	0.119712204
201	0x3f7e28b5	0.99280864
202	0x3d1b6519	0.03793821
203	0x3f7fd0d2	0.9992801
204	0x3c449a70	0.011999711
205	0x3f7ffb48	0.999928
206	0x3b78b0eb	0.0037947248
207	0x3f7fff87	0.9999928
208	0x3ed72022	0.42016703
209	0x3f684e6f	0.9074468
210	0xbf53144c	-0.82452846
211	0xbf10d99d	-0.5658205
212	0x3f76abc0	0.9635582
213	0x3e88f59d	0.26749888
214	0x3ecc9a3f	0.3996143
215	0x3f6aabc3	0.9166834
216	0x3e04bed0	0.12963414
217	0x3f7dd700	0.9915619
218	0x3d285665	0.041098017
219	0x3f7fc8a1	0.9991551
220	0x3c54fc6a	0.012999633
221	0x3f7ffa76	0.9999155
222	0x3b86b526	0.00411095
223	0x3f7fff72	0.99999154
224	0x3f7d9872	0.9906074
225	0x3e0c04d7	0.13673721
226	0xbf75a8b3	-0.9596054
227	0xbe900d0a	-0.28134948
228	0x3f7c466f	0.98544973
229	0x3e2e0be7	0.16996728
230	0x3edb56f4	0.42839777
231	0x3f6751b1	0.90359026
232	0x3e0ee464	0.13954312
233	0x3f7d7ecc	0.990216
234	0x3d354743	0.044257414
235	0x3f7fbfc9	0.99902016
236	0x3c655e55	0.013999541
237	0x3f7ff994	0.999902
238	0x3b9111d6	0.004427175
239	0x3f7fff5c	0.9999902
240	0x3f267944	0.65028787
241	0xbf427ae8	-0.7596879
242	0xbf7fe075	-0.9995187
243	0x3cfe2296	0.031022351
244	0x3f7f5bd5	0.997495
245	0x3d90deba	0.07073732
246	0x3ee9db83	0.45675287
247	0x3f63bc68	0.8895936
248	0x3e19064f	0.14943813
249	0x3f7d201a	0.9887711
250	0x3d4237aa	0.047416367
251	0x3f7fb649	0.9988752
252	0x3c75c032	0.014999436
253	0x3f7ff8a1	0.9998875
254	0x3b9b6e85	0.0047433996
255	0x3f7fff43	0.99998873

pos_decoder.pe f4 [1, 5000, 16]
0	0x00000000	0.0
1	0x3f800000	1.0
2	0x00000000	0.0
3	0x3f800000	1.0
4	0x00000000	0.0
5	0x3f800000	1.0
6	0x00000000	0.0
7	0x3f800000	1.0
8	0x00000000	0.0
9	0x3f800000	1.0
10	0x00000000	0.0
11	0x3f800000	1.0
12	0x00000000	0.0
13	0x3f800000	1.0
14	0x00000000	0.0
15	0x3f800000	1.0
16	0x3f576aa4	0.84147096
17	0x3f0a5141	0.54030234
18	0x3e9f393e	0.3109836
19	0x3f734e6b	0.9504153
20	0x3dcc7576	0.099833414
21	0x3f7eb898	0.9950042
22	0x3d01815b	0.031617504
23	0x3f7fdf3c	0.99950004
24	0x3c23d657	0.009999833
25	0x3f7ffcb9	0.99995
26	0x3b4f3e1c	0.0031622713
27	0x3f7fffac	0.999995
28	0x3a83126d	0.0009999998
29	0x3f7ffff8	0.9999995
30	0x39a5cb61	0.00031622782
31	0x3f7fffff	0.99999994
32	0x3f68c7b7	0.9092974
33	0xbed51133	-0.41614684
34	0x3f17541b	0.5911271
35	0x3f4e7bec	0.8065784
36	0x3e4b6ff8	0.19866931
37	0x3f7ae5a5	0.9800666
38	0x3d8170c8	0.063203394
39	0x3f7f7cf9	0.9980007
40	0x3ca3d43e	0.019998666
41	0x3f7ff2e5	0.9998
42	0x3bcf3dd8	0.006324511
43	0x3f7ffeb1	0.99998003
44	0x3b031268	0.0019999985
45	0x3f7fffdf	0.99999803
46	0x3a25cb60	0.0006324556
47	0x3f7ffffd	0.9999998
48	0x3e1081c3	0.14112
49	0xbf7d7026	-0.9899925
50	0x3f5009c2	0.8126489
51	0x3f152f58	0.58275366
52	0x3e974e6c	0.2955202
53	0x3f7490ef	0.9553365
54	0x3dc1ffc0	0.094726086
55	0x3f7ed94f	0.99550337
56	0x3cf5b91f	0.0299955
57	0x3f7fe283	0.99955004
58	0x3c1b6e0d	0.009486687
59	0x3f7ffd0d	0.999955
60	0x3b449b92	0.0029999954
61	0x3f7fffb5	0.9999955
62	0x3a78b110	0.00094868336
63	0x3f7ffff9	0.9999996
64	0xbf41bdcf	-0.7568025
65	0xbf275530	-0.6536436
66	0x3f741dde	0.95358074
67	0x3e9a2eb1	0.30113748
68	0x3ec761d7	0.38941833
69	0x3f6bcaa7	0.921061
70	0x3e012e88	0.12615407
71	0x3f7df469	0.99201065
72	0x3d23cbdb	0.039989334
73	0x3f7fcb94	0.9992001
74	0x3c4f3cc9	0.01264877
75	0x3f7ffac2	0.99992
76	0x3b831257	0.003999989
77	0x3f7fff7a	0.999992
78	0x3aa5cb5e	0.0012649109
79	0x3f7ffff3	0.9999992
80	0xbf757c10	-0.9589243
81	0x3e913c2c	0.2836622
82	0x3f7ffc7f	0.99994653
83	0xbc2972e9	-0.010342338
84	0x3ef57743	0.47942552
85	0x3f60a940	0.87758255
86	0x3e213c1d	0.15745588
87	0x3f7cce81	0.987526
88	0x3d4cb6f4	0.049979165
89	0x3f7fae19	0.99875027
90	0x3c81857e	0.015810724
91	0x3f7ff7cf	0.999875
92	0x3ba3d6dd	0.004999979
93	0x3f7fff2e	0.9999875
94	0x3acf3e33	0.0015811383
95	0x3f7fffeb	0.99999875
96	0xbe8f0f8c	-0.2794155
97	0x3f75cdb8	0.96017027
98	0x3f72784e	0.9471482
99	0xbea43f6d	-0.3207964
100	0x3f108c68	0.5646424
101	0x3f534932	0.8253356
102	0x3e41206e	0.18860027
103	0x3f7b67e3	0.98205394
104	0x3d759cd1	0.059964005
105	0x3f7f8a12	0.99820054
106	0x3c9b6c43	0.018972522
107	0x3f7ff434	0.99982
108	0x3bc49b58	0.0059999637
109	0x3f7ffed2	0.999982
110	0x3af8b108	0.0018973658
111	0x3f7fffe2	0.9999982
112	0x3f283046	0.6569866
113	0x3f40ffbd	0.75390226
114	0x3f4ce86e	0.8004216
115	0xbf1974bc	-0.5994375
116	0x3f24eb72	0.6442176
117	0x3f43ccb3	0.7648422
118	0x3e60d350	0.2195561
119	0x3f79c0ea	0.9755999
120	0x3d8f3e32	0.06994285
121	0x3f7f5f81	0.997551
122	0x3cb552a2	0.022134129
123	0x3f7feff2	0.999755
124	0x3be55fc5	0.006999942
125	0x3f7ffe65	0.9999755
126	0x3b1111ed	0.0022135929
127	0x3f7fffd7	0.99999756
128	0x3f7d4695	0.98935825
129	0xbe14fdf6	-0.14550003
130	0x3f13067e	0.5743178
131	0xbf5191e5	-0.8186324
132	0x3f37a4a5	0.717356
133	0x3f325b5f	0.6967067
134	0x3e802651	0.25029233
135	0x3f77da02	0.9681703
136	0x3da3aa50	0.07991469
137	0x3f7f2e65	0.9968017
138	0x3ccf388a	0.025295515
139	0x3f7feb08	0.99968004
140	0x3c031212	0.007999914
141	0x3f7ffde7	0.999968
142	0x3b25cb55	0.0025298197
143	0x3f7fffca	0.9999968
144	0x3ed30132	0.4121185
145	0xbf693fd5	-0.91113025
146	0x3e951fee	0.29125923
147	0xbf74e6a2	-0.9566442
148	0x3f48881c	0.78332686
149	0x3f1f21d5	0.62161
150	0x3e8fc22d	0.28077832
151	0x3f75b3a9	0.95977265
152	0x3db8123e	0.089878544
153	0x3f7ef6c2	0.9959527
154	0x3ce91dea	0.028456647
155	0x3f7fe576	0.99959505
156	0x3c13743a	0.008999879
157	0x3f7ffd59	0.9999595
158	0x3b3a84bc	0.0028460464
159	0x3f7fffbc	0.99999595
160	0xbf0b44f8	-0.5440211
161	0xbf56cd64	-0.8390715
162	0xbca97097	-0.02068357
163	0xbf7ff1fb	-0.9997861
164	0x3f576aa4	0.84147096
165	0x3f0a5141	0.54030234
166	0x3e9f393d	0.31098357
167	0x3f734e6b	0.9504153
168	0x3dcc7576	0.099833414
169	0x3f7eb898	0.9950042
170	0x3d018159	0.031617496
171	0x3f7fdf3c	0.99950004
172	0x3c23d657	0.009999833
173	0x3f7ffcb9	0.99995
174	0x3b4f3e22	0.0031622727
175	0x3f7fffac	0.999995
176	0xbf7fff5c	-0.9999902
177	0x3b910572	0.004425698
178	0xbea9411f	-0.33057496
179	0xbf719b8d	-0.94377977
180	0x3f64262a	0.89120734
181	0x3ee83dc3	0.4535962
182	0x3eae878b	0.34087786
183	0x3f70aae4	0.9401076
184	0x3de0d372	0.1097783
185	0x3f7e73e8	0.9939561
186	0x3d0e7368	0.03477803
187	0x3f7fd85b	0.9993951
188	0x3c343869	0.010999777
189	0x3f7ffc09	0.9999395
190	0x3b63f787	0.003478499
191	0x3f7fff9b	0.999994
192	0xbf095cd8	-0.53657293
193	0x3f5806d0	0.84385395
194	0xbf1b9124	-0.6076834
195	0xbf4b4f56	-0.7941793
196	0x3f6e9a1d	0.9320391
197	0x3eb986f7	0.36235783
198	0x3ebda92c	0.3704313
199	0x3f6dc9c3	0.9288599
200	0x3df52bac	0.119712204
201	0x3f7e28b5	0.99280864
202	0x3d1b6519	0.03793821
203	0x3f7fd0d2	0.9992801
204	0x3c449a70	0.011999711
205	0x3f7ffb48	0.999928
206	0x3b78b0eb	0.0037947248
207	0x3f7fff87	0.9999928
208	0x3ed72022	0.42016703
209	0x3f684e6f	0.9074468
210	0xbf53144c	-0.82452846
211	0xbf10d99d	-0.5658205
212	0x3f76abc0	0.9635582
213	0x3e88f59d	0.26749888
214	0x3ecc9a3f	0.3996143
215	0x3f6aabc3	0.9166834
216	0x3e04bed0	0.12963414
217	0x3f7dd700	0.9915619
218	0x3d285665	0.041098017
219	0x3f7fc8a1	0.9991551
220	0x3c54fc6a	0.012999633
221	0x3f7ffa76	0.9999155
222	0x3b86b526	0.00411095
223	0x3f7fff72	0.99999154
224	0x3f7d9872	0.9906074
225	0x3e0c04d7	0.13673721
226	0xbf75a8b3	-0.9596054
227	0xbe900d0a	-0.28134948
228	0x3f7c466f	0.98544973
229	0x3e2e0be7	0.16996728
230	0x3edb56f4	0.42839777
231	0x3f6751b1	0.90359026
232	0x3e0ee464	0.13954312
233	0x3f7d7ecc	0.990216
234	0x3d354743	0.044257414
235	0x3f7fbfc9	0.99902016
236	0x3c655e55	0.013999541
237	0x3f7ff994	0.999902
238	0x3b9111d6	0.004427175
239	0x3f7fff5c	0.9999902
240	0x3f267944	0.65028787
241	0xbf427ae8	-0.7596879
242	0xbf7fe075	-0.9995187
243	0x3cfe2296	0.031022351
244	0x3f7f5bd5	0.997495
245	0x3d90deba	0.07073732
246	0x3ee9db83	0.45675287
247	0x3f63bc68	0.8895936
248	0x3e19064f	0.14943813
249	0x3f7d201a	0.9887711
250	0x3d4237aa	0.047416367
251	0x3f7fb649	0.9988752
252	0x3c75c032	0.014999436
253	0x3f7ff8a1	0.9998875
254	0x3b9b6e85	0.0047433996
255	0x3f7fff43	0.99998873

transformer.encoder.layers.0.self_attn.in_proj_weight f4 [48, 16]
0	0xbe2fdc2f	-0.17173837
1	0x3e59d8b7	0.21274076
2	0x3e77c95b	0.24197905
3	0xbe9c4e5b	-0.3052853
4	0x3d76ce7c	0.060255513
5	0xbd5ae4b2	-0.053440757
6	0xbe1de15b	-0.15417998
7	0x3e09336e	0.13398525
8	0x3d9dd322	0.07706286
9	0x3e0915a7	0.13387166
10	0xbd912a70	-0.070881724
11	0xbe910fbd	-0.2833232
12	0x3e0a7f43	0.13525109
13	0xbe2daad7	-0.16959701
14	0x3bdbf206	0.006712201
15	0x3daaf71c	0.083479136
16	0xbe3c436f	-0.18385099
17	0xbd8210c7	-0.06350856
18	0x3e8a4fa8	0.27013898
19	0x3da6a5db	0.08137103
20	0x3d9ae4e0	0.07563186
21	0x3d8746ad	0.06605277
22	0xbdd86981	-0.10566998
23	0xbe5aaa54	-0.21354038
24	0x3dab1949	0.08354432
25	0xbe87007d	-0.2636756
26	0xbe6ce7fa	-0.23135367
27	0xbdd5e69e	-0.10444377
28	0xbdf9e24d	-0.122013666
29	0xbd096b81	-0.03354979
30	0xbce20180	-0.027588606
31	0xbe20300f	-0.15643333
32	0xbd5da1e8	-0.054109484
33	0xbdbfda01	-0.09367753
34	0x3e5e175f	0.21688603
35	0xbe10f6ae	-0.14156601
36	0x3e03d3a2	0.128737
37	0x3e951918	0.29120708
38	0x3e97ad33	0.29624328
39	0xbe7597b2	-0.23983648
40	0xbe1f83ed	-0.1557767
41	0x3d977245	0.07394842
42	0xbdbde46a	-0.09272082
43	0xbe6349df	-0.22196148
44	0x3e85d0eb	0.26135954
45	0xbb7fa3b4	-0.0039007487
46	0xbd6001fa	-0.054689385
47	0xbe1e3639	-0.15450372
48	0xbe881a1d	-0.26582423
49	0x3dde4e2d	0.108547546
50	0xbe3c2767	-0.18374406
51	0x3e637fa3	0.22216658
52	0xbb9bde82	-0.0047567496
53	0x3e3e030a	0.18555847
54	0x3e9c06e1	0.30473998
55	0xbcf3d7ae	-0.02976593
56	0xbe82917a	-0.25501615
57	0xbda168f2	-0.07881345
58	0x3e62c216	0.2214435
59	0x3d3e40e2	0.046448596
60	0x3db6b4bc	0.08921191
61	0xbe55b2b5	-0.20868953
62	0x3df753eb	0.12076553
63	0xbe62f6f1	-0.22164513
64	0x3e85ccc7	0.26132795
65	0x3d82510d	0.063631155
66	0x3e095f0d	0.13415165
67	0xbe483029	-0.19549622
68	0x3e8a51ce	0.27015537
69	0x3e9929ae	0.29914612
70	0xbdaa6a59	-0.083210655
71	0x3e1b8d30	0.15190578
72	0x3e1ee31c	0.15516323
73	0x3e94836b	0.29006514
74	0x3e40234c	0.18763465
75	0x3e2f237e	0.17103383
76	0xbe3198a3	-0.17343383
77	0xbe35c431	-0.17750622
78	0x3e143947	0.14474975
79	0xbe4422c4	-0.19153887
80	0xbd4e32c9	-0.0503414
81	0x3e7f3514	0.24922591
82	0xbe7f103c	-0.24908537
83	0x3e73e03e	0.2381601
84	0x3e57eba4	0.21085984
85	0x3e15889c	0.14602894
86	0x3e08dd84	0.13365752
87	0x3e2f854f	0.17140697
88	0xbd718dee	-0.058973245
89	0xbe44cffd	-0.19219966
90	0xbd28abcc	-0.041179463
91	0xbda21529	-0.07914192
92	0xbd1bcacc	-0.0380352
93	0x3d9abd24	0.07555607
94	0x3d758198	0.059938043
95	0x3e2465b8	0.16054428
96	0xbd11793f	-0.03551602
97	0x3d0b052d	0.033940483
98	0x3e57107c	0.21002382
99	0x3e781df6	0.24230179
100	0xbe83ae8c	-0.25719106
101	0xbe23996e	-0.15976498
102	0xbb9b33a6	-0.0047363816
103	0xbd36f69e	-0.044668786
104	0x3e96921c	0.29408348
105	0xbe3e96cc	-0.18612212
106	0x3d589fa3	0.052886616
107	0xbe740556	-0.2383016
108	0x3e6ced10	0.23137307
109	0x3e8b1f05	0.27172104
110	0xbea18a77	-0.31550953
111	0x3dcd16ab	0.10014089
112	0x3e801d76	0.25022477
113	0x3e3a3cb4	0.18187219
114	0x3d80d1cf	0.06290018
115	0x3e9999dc	0.30000198
116	0x3e37422d	0.17896338
117	0xbe54b4b4	-0.20772058
118	0xbe04368b	-0.12911431
119	0x3defb36b	0.11704143
120	0x3e82d0af	0.25549838
121	0x3e78d16f	0.24298643
122	0x3e45b47e	0.19307134
123	0xbe93282d	-0.2874159
124	0xbe6c686f	-0.23086713
125	0xbdf57f25	-0.119871415
126	0x3ea14d31	0.31504205
127	0x3ca3f380	0.02001357
128	0x3e28cf91	0.1648543
129	0x3e38a2cf	0.18030857
130	0x3e05527e	0.1301975
131	0xbe08e845	-0.13369854
132	0xbdfefa39	-0.1245007
133	0x3e657cfb	0.22410958
134	0x3e943a75	0.2895085
135	0x3e0e937b	0.13923447
136	0x3d8f6fc4	0.070037395
137	0xbe652c6d	-0.22380228
138	0xbe934bcc	-0.28768766
139	0xbe824394	-0.25442183
140	0xbcfc4dc4	-0.0307988
141	0xbd5645ca	-0.05231265
142	0x3de01408	0.10941321
143	0xbe575c32	-0.21031263
144	0x3e8357ff	0.25653073
145	0xbd99fae0	-0.07518554
146	0xbe2af71a	-0.16695824
147	0xbe88a057	-0.2668483
148	0x3e297cd5	0.16551526
149	0xbe9d2f7e	-0.30700296
150	0xbe323e58	-0.17406595
151	0xbb37a147	-0.0028019713
152	0xbe041807	-0.1289979
153	0x3dd3f0f6	0.10348694
154	0x3da70e5c	0.08157036
155	0xbe23976b	-0.1597573
156	0x3e300e6b	0.17193
157	0x3e71259b	0.23549502
158	0x3e170093	0.14746313
159	0xbe1da765	-0.15395887
160	0x3d8b1f40	0.0679307
161	0x3e837e2f	0.25682208
162	0xbe2f6532	-0.17128447
163	0xbe8dadfd	-0.27671805
164	0x3e116200	0.1419754
165	0xbd1c1077	-0.03810164
166	0xbe5da191	-0.21643664
167	0xbde9d174	-0.11416903
168	0xbd87c3d2	-0.06629147
169	0x3e970fcb	0.29504237
170	0xbe3fca72	-0.1872957
171	0xbe7685ab	-0.24074428
172	0xbdda586f	-0.106613986
173	0x3e17da34	0.14829332
174	0xbe0ee9d0	-0.1395638
175	0x3d8a64a6	0.067574784
176	0x3e4c110b	0.19928376
177	0xbd82695a	-0.063677505
178	0xbe463e54	-0.19359714
179	0x3c18c79f	0.009324937
180	0xbd6d6052	-0.057953186
181	0x3e989710	0.29802752
182	0x3d0bdbb2	0.034145065
183	0xbd83ef52	-0.06442131
184	0xbdb763ec	-0.089546055
185	0xbe18a026	-0.14904842
186	0xbe10f07e	-0.1415424
187	0x3e5d1a3b	0.21592037
188	0xbe3f22ce	-0.1866562
189	0x3e9020cd	0.28150025
190	0x3e3ed9db	0.18637793
191	0x3df175af	0.117900245
192	0xbe8cb028	-0.27478147
193	0x3e47ebb3	0.19523506
194	0xbd86dd47	-0.06585174
195	0x3e0828f5	0.13296874
196	0xbe7d67ef	-0.24746679
197	0x3e0f3af0	0.13987327
198	0x3b8d5f10	0.004314311
199	0x3e370b23	0.17875342
200	0x3e3ad1d4	0.18244106
201	0xbe99e1db	-0.30055127
202	0xbdee9c00	-0.116508484
203	0x3e583498	0.21113813
204	0xbe497f8c	-0.19677562
205	0xbe718eaa	-0.23589578
206	0x3e878323	0.26467237
207	0xbdc141d9	-0.094363876
208	0x3e5e0375	0.21681006
209	0xbdef8968	-0.1169613
210	0xbd15e26b	-0.036592882
211	0x3e52e1cc	0.20593947
212	0x3e23da88	0.16001332
213	0x3e63031d	0.22169156
214	0x3c9f0b7d	0.019414658
215	0x3e08b36f	0.13349698
216	0xbe0ed1bc	-0.13947195
217	0xbe39cf9b	-0.18145601
218	0xbe866a94	-0.26253188
219	0xbdfdd102	-0.12393381
220	0xbe0b8707	-0.13625728
221	0xbdadb157	-0.084810905
222	0xbc523ce0	-0.012831897
223	0x3dc07711	0.0939771
224	0x3c1a7c9e	0.009429125
225	0x3c9e9fb0	0.019363254
226	0x3e632218	0.22180974
227	0x3e76569f	0.24056481
228	0xbe1917ee	-0.14950535
229	0xbe904700	-0.2817917
230	0xbe4e94e2	-0.20173982
231	0xbddf5749	-0.1090532
232	0xbe605ddc	-0.21910805
233	0x3ce40f37	0.027839286
234	0x3e094192	0.1340392
235	0x3e992f93	0.2991911
236	0xbe98550c	-0.29752386
237	0x3df2991f	0.11845612
238	0xbe1585d2	-0.1460183
239	0x3e84c4e3	0.25931463
240	0xbe817e40	-0.25291634
241	0xbe43212a	-0.1905562
242	0x3d837280	0.064183235
243	0xbe269c39	-0.16270532
244	0x3e905158	0.2818706
245	0xbe74e862	-0.23916772
246	0x3d471845	0.04860713
247	0x3d60fac7	0.05492666
248	0x3e2bc2c5	0.16773517
249	0x3e16330a	0.14667907
250	0xbe72e875	-0.23721488
251	0x3e0ee6d7	0.13955246
252	0xbe416dc6	-0.18889531
253	0xbe64fc0d	-0.22361775
254	0xbe490570	-0.1963098
255	0xbe94abdf	-0.29037377

transformer.encoder.layers.0.self_attn.in_proj_bias f4 [48]
0	0xb9ce827c	-0.000393886
1	0xbb7b20cb	-0.0038319107
2	0x3bbfed7c	0.0058571678
3	0xb9f6a40f	-0.0004704301
4	0x3ad5e2d8	0.0016318215
5	0x3c65c8ec	0.014024954
6	0xbbce2fb3	-0.0062923073
7	0x3c22cfcf	0.009937241
8	0xbbc7df00	-0.0060995817
9	0x3bd0d1c6	0.006372663
10	0x3c02f63b	0.007993276
11	0xbc181497	-0.009282253
12	0xbc808b15	-0.01569132
13	0x3c5cffe2	0.013488742
14	0x3b7b610e	0.003835741
15	0xbb823178	-0.0039731823
16	0x394bc1c5	0.00019431773
17	0xba95eeca	-0.0011438963
18	0xb9fd613d	-0.0004832837
19	0xba010ed8	-0.00049231714
20	0xba297879	-0.000646479
21	0xb99d300b	-0.00029981168
22	0x3920a80c	0.00015321391
23	0x37724117	1.4439479e-05
24	0x3916eda5	0.00014393644
25	0xb92b4c0f	-0.00016336165
26	0x394ff154	0.0001983096
27	0xb91a67c6	-0.00014725243
28	0xbae37c55	-0.001735578
29	0x3a048d1b	0.0005056427
30	0x3ab97ef6	0.0014152217
31	0xbaddee71	-0.0016932023
32	0x3b9ada47	0.0047257277
33	0x3c15de24	0.009147201
34	0xbc053ce5	-0.008132194
35	0xbb03a730	-0.0020088665
36	0x3bcd6529	0.0062681627
37	0xbc0819b6	-0.008306911
38	0x394da9ad	0.00019613533
39	0xbc42a2a6	-0.011879599
40	0x3c5e1978	0.013555877
41	0xbc8317fd	-0.01600265
42	0x3bd147ce	0.0063867336
43	0xbbedbafc	-0.0072549563
44	0x39f0fac6	0.00045963208
45	0x3c2f0d0c	0.010684263
46	0x3be4bee2	0.006980763
47	0x3c2d0635	0.010560562

transformer.encoder.layers.0.self_attn.out_proj.weight f4 [16, 16]
0	0x3e176f8d	0.14788647
1	0xbe8e8fb6	-0.27844018
2	0xbe392677	-0.1808108
3	0x3eb015e7	0.3439171
4	0x3ea76d47	0.3270056
5	0x3c6acdb1	0.014331267
6	0x3e6e3010	0.23260522
7	0x3ed3502b	0.412721
8	0xbe2e8b32	-0.17045286
9	0xbe1798cc	-0.14804381
10	0x3eb55ab3	0.3542076
11	0x3ea92338	0.33034682
12	0x3e6cf08c	0.23138636
13	0x3e1d3ca8	0.1535517
14	0xb9bdad12	-0.00036177837
15	0xbeb9068c	-0.36137807
16	0xbea08458	-0.3135097
17	0xbebd3a2c	-0.36958444
18	0x3e873e0d	0.26414528
19	0xbe123052	-0.14276245
20	0x3e56ac8f	0.20964263
21	0xbd4312fa	-0.04762552
22	0xbec24163	-0.3794051
23	0x3e31c1d9	0.17359103
24	0xbebd593a	-0.36982137
25	0xbe901a99	-0.28145292
26	0xbe916b45	-0.28402153
27	0xbd718d91	-0.0589729
28	0xbdcf62bb	-0.10126253
29	0x3ee0a597	0.43876335
30	0xbe939961	-0.28827956
31	0xbcf40b84	-0.029790647
32	0x3e7d106c	0.24713296
33	0x3eb04546	0.3442785
34	0xbec3f6d7	-0.3827426
35	0x3ecf2703	0.4045945
36	0x3e64e85a	0.2235426
37	0xbe5c9ea2	-0.21544889
38	0xbe8aa4b8	-0.27078795
39	0xbed39a93	-0.41328868
40	0x3e3cf78a	0.18453804
41	0xbd4010a7	-0.04689088
42	0xbe175d13	-0.14781599
43	0xbe921f74	-0.28539622
44	0x3e9a5a2d	0.30146924
45	0xbeb987e0	-0.36236477
46	0xbe5a6c31	-0.21330334
47	0xbe77e67d	-0.24209018
48	0xbce52cf5	-0.027975539
49	0xbea452ac	-0.32094324
50	0x3cd39c40	0.025831342
51	0x3e779faf	0.24182008
52	0xbdc7740d	-0.09738932
53	0xbd9b5a1c	-0.075855464
54	0x3e901caf	0.28146884
55	0x3ec4f7d1	0.3847032
56	0xbe56032e	-0.2089965
57	0x3e9ab07f	0.3021278
58	0xbec9a793	-0.3938566
59	0xbc41bd24	-0.01182488
60	0x3ed729a1	0.42023948
61	0xbed510f9	-0.41614512
62	0xbe3656c9	-0.17806543
63	0xbe293d1b	-0.16527216
64	0xbe817ae1	-0.25289062
65	0x3dcb1ce8	0.09917623
66	0xbe94d6b0	-0.29070044
67	0xbead9c06	-0.339081
68	0x3de0812c	0.109621376
69	0x3e10ff15	0.14159806
70	0x3d245f94	0.040130213
71	0xbe7d08ce	-0.2471039
72	0xbe422a62	-0.1896148
73	0x3d109f4d	0.03530817
74	0xbc0ef4b5	-0.008725335
75	0x3d085d26	0.03329196
76	0x3ea5698b	0.32307085
77	0x3ea825a8	0.3284123
78	0x3d760bbf	0.060069796
79	0x3ece9c64	0.40353692
80	0x3ec9484b	0.39312968
81	0x3ec679f4	0.38764918
82	0xbe79d423	-0.2439733
83	0x3ec34759	0.3814037
84	0xbd651b0e	-0.055934004
85	0xbec45f52	-0.38353974
86	0x3e88fc23	0.26754865
87	0x3ea196d0	0.31560373
88	0x3df85798	0.12126082
89	0xbe149a26	-0.14511928
90	0xbd3a6f76	-0.045516454
91	0xbe0e2ab1	-0.13883473
92	0xbce46c04	-0.027883537
93	0x3d27c4a8	0.04095903
94	0xbe7a89b5	-0.24466594
95	0x3e833380	0.2562523
96	0xbea76339	-0.32692888
97	0xbeb11b2d	-0.34591046
98	0x3d93df6b	0.07220348
99	0xbeac591b	-0.33661732
100	0x3e6637c5	0.22482212
101	0xbe80ddfe	-0.25169367
102	0xbe627efe	-0.22118756
103	0xbcdff216	-0.027337115
104	0xbebdd54a	-0.3707679
105	0xbea4cb26	-0.3218624
106	0xbd9f43f2	-0.077766314
107	0x3ed219c3	0.4103528
108	0x3e80c6c5	0.2515165
109	0x3ebc7ad1	0.3681245
110	0xbed82cb4	-0.42221606
111	0xbcd6045b	-0.026125124
112	0x3ea82c3f	0.32846257
113	0x3d0dc200	0.03460884
114	0xbde85b9f	-0.113456
115	0x3d8b7f2e	0.06811367
116	0xbc44d5b5	-0.012013842
117	0xbe02aeff	-0.12762068
118	0x3ec23a84	0.3793527
119	0x3e04a61e	0.12953994
120	0x3e8cabb7	0.27474758
121	0x3be6fc86	0.007049146
122	0x3e8842e8	0.26613545
123	0x3e8bbdd4	0.27293265
124	0xbe413709	-0.1886865
125	0xbdc5733a	-0.09641118
126	0xbc72b5f0	-0.014813885
127	0xbd302ade	-0.04300963
128	0xbe288568	-0.1645714
129	0x3d4e94ad	0.050434757
130	0xbea77ab5	-0.32710806
131	0x3ec2c8d1	0.38043836
132	0xbbb565a7	-0.0055357995
133	0x3e80c574	0.25150645
134	0xbb94fd46	-0.004546794
135	0xbe85da6a	-0.261432
136	0xbea27373	-0.31728706
137	0x3eb02ffe	0.34411615
138	0xbec82ba0	-0.39095783
139	0x3e7b69d8	0.24552095
140	0xbe83ce39	-0.25743273
141	0xbed0c06e	-0.40771812
142	0xbe93ef85	-0.28893676
143	0xbed93da8	-0.42429852
144	0xbe2e5cce	-0.1702759
145	0xbe36a482	-0.17836192
146	0x3e9a9662	0.30192858
147	0xbe77bd02	-0.24193195
148	0x3e88945b	0.26675686
149	0x3e544420	0.20729113
150	0xbcab8ba5	-0.020940611
151	0x3ea975f0	0.33097792
152	0xbe00246f	-0.12513898
153	0xbe5fce08	-0.21855938
154	0xbdee64ba	-0.11640306
155	0xbec10c0a	-0.37704498
156	0x3db21e66	0.08697204
157	0xbe5d4a9e	-0.21610495
158	0xbdea5887	-0.114426665
159	0x3edfa7c8	0.43682694
160	0xbec76f18	-0.38951945
161	0x3e77edb2	0.24211767
162	0xbe842485	-0.25809112
163	0x3e2081de	0.1567454
164	0xbdaa376b	-0.083113514
165	0xbea10ea5	-0.31456485
166	0x3ebc4ba7	0.36776468
167	0x3bbc3016	0.005743037
168	0x3cf47726	0.02984197
169	0x3e98e969	0.29865578
170	0xbca82fb2	-0.020530555
171	0x3e94d5d7	0.29069397
172	0xbd56b17b	-0.052415352
173	0xbe7e49c4	-0.24832827
174	0x3daf0386	0.08545594
175	0x3e96e00d	0.29467812
176	0x3e1a944a	0.1509563
177	0xbec8ee61	-0.3924437
178	0xbda01909	-0.07817275
179	0xbaea9788	-0.0017897943
180	0xbe6015b0	-0.21883273
181	0x3ed0d0b5	0.4078423
182	0x3e872bbb	0.2640055
183	0xbe385e95	-0.1800483
184	0xbe612289	-0.2198583
185	0x3da81afa	0.0820827
186	0x3ea7952d	0.32731
187	0xbdd0e590	-0.102000356
188	0x3db887fa	0.090103105
189	0xbbc887a5	-0.0061196857
190	0x3eadfeb6	0.33983392
191	0xbec14100	-0.37744904
192	0x3d8fb304	0.070165664
193	0x3e31ceee	0.17364094
194	0xbe824965	-0.2544662
195	0x3e3832bc	0.17988104
196	0x3ea8fd01	0.33005527
197	0xbec176b0	-0.37785864
198	0xbe807fc7	-0.25097486
199	0x3e869c8c	0.2629131
200	0x3cfa54e5	0.030558059
201	0x3e2ea5d8	0.17055452
202	0x3e21e1e3	0.15808825
203	0x3e8ade6b	0.27122816
204	0xbe9f1ec2	-0.31078154
205	0x3da5a4dd	0.08088086
206	0xbeb732b7	-0.3578088
207	0x3e897fac	0.26855218
208	0xbe87d269	-0.26527718
209	0x3d9f6629	0.077831574
210	0x3e4c0d24	0.19926888
211	0xbd98a366	-0.07453041
212	0xbe81b6ef	-0.2533488
213	0x3e2559e5	0.16147573
214	0x3b4f77a7	0.0031657012
215	0x3ea073d1	0.3133836
216	0xbec995e5	-0.39372173
217	0xbd9cb636	-0.076519415
218	0xbe84e5d1	-0.25956586
219	0xbd9976a2	-0.074933305
220	0x3eb32b90	0.34994173
221	0x3dc51160	0.09622455
222	0x3db5b921	0.08873201
223	0xbe70dac9	-0.2352096
224	0x3ea9a551	0.3313394
225	0xbe035461	-0.12825157
226	0x3e9ca25b	0.30592617
227	0xbb01b4bd	-0.0019791566
228	0xbe82da67	-0.25557253
229	0x3e8587a1	0.2608004
230	0xbcba2453	-0.022722399
231	0xbee192cd	-0.44057313
232	0xbea50ce7	-0.32236406
233	0xbe768657	-0.24074684
234	0x3df2fb0c	0.1186429
235	0xbeaa15f2	-0.33219868
236	0xbe98ac39	-0.29818895
237	0xbd05a5d4	-0.03262885
238	0x3ee4ead4	0.4471041
239	0x3e67f3ce	0.22651598
240	0xbea7a629	-0.32743958
241	0x3e24ce9f	0.16094445
242	0x3ec6bff2	0.38818318
243	0xbe958b9a	-0.2920807
244	0xbd86d187	-0.06582933
245	0x3e6fdd16	0.23424181
246	0xbedc6fb0	-0.4305396
247	0x3ed33731	0.41253045
248	0xbecbc0c9	-0.3979552
249	0x3df9ffcc	0.122069925
250	0x3de3d570	0.11124694
251	0x3e8ffb58	0.28121448
252	0xbd8d5e79	-0.06902785
253	0xbe7b3bd1	-0.24534537
254	0xbea3f09b	-0.32019505
255	0xbe800726	-0.25005454

transformer.encoder.layers.0.self_attn.out_proj.bias f4 [16]
0	0x3a1928ea	0.00058425835
1	0x3a358d2e	0.00069256395
2	0x3be976b7	0.0071247476
3	0xbb6d1db8	-0.0036181044
4	0x3c1a2ef7	0.009410611
5	0x3c16c194	0.009201426
6	0x3abf1d03	0.001458079
7	0x3bb9e195	0.0056726434
8	0xbc9ef606	-0.019404422
9	0xbbf63531	-0.007513665
10	0x39ca7d02	0.0003862158
11	0xbc17cefc	-0.0092656575
12	0x3c80aef6	0.015708428
13	0xba6e0504	-0.0009079727
14	0x3c2f1f5e	0.010688631
15	0xbc8a3624	-0.01687152

transformer.encoder.layers.0.linear1.weight f4 [64, 16]
0	0x3e519201	0.20465852
1	0x3e17b9b9	0.14816941
2	0xbdfe5d2d	-0.124201156
3	0x3dc2927e	0.095005974
4	0xbdb7d108	-0.089754164
5	0x3e5fde9f	0.21862267
6	0x3d04ef46	0.03245475
7	0xbe3a5162	-0.18195108
8	0xbcd07a06	-0.02544881
9	0xbc882615	-0.016619721
10	0xbd16b525	-0.036793847
11	0x3e0470db	0.12933676
12	0x3dbeea66	0.09322052
13	0xbde2e9d3	-0.11079755
14	0xbdc249a0	-0.09486699
15	0x3a350d6e	0.0006906603
16	0x3c84877f	0.01617789
17	0xbd9e127b	-0.077183686
18	0xbdf7999d	-0.12089846
19	0x3e37859c	0.17922062
20	0x3dd5bbfa	0.10436244
21	0x3d8ecc6e	0.069725856
22	0xbe757657	-0.23970924
23	0xbddf328d	-0.10898314
24	0xbd9a3528	-0.0752967
25	0x3caa053c	0.02075445
26	0x3cf5f746	0.030025136
27	0xbe1be34d	-0.15223427
28	0x3e19a1bc	0.15003103
29	0x3dddca8c	0.108296484
30	0x3d7d6e8c	0.061873004
31	0xbe93f297	-0.2889602
32	0xbd6e89b0	-0.058236778
33	0xbe227b19	-0.1586727
34	0xbe0b81d3	-0.13623743
35	0xbe12e754	-0.14346057
36	0xbdef8ac5	-0.1169639
37	0xbdd23999	-0.10264892
38	0xbe219df8	-0.15782917
39	0xbdd94f10	-0.10610783
40	0x3e7d0f05	0.24712761
41	0x3e82cecd	0.255484
42	0x3e7a4e01	0.24443819
43	0x3e570900	0.20999527
44	0x3d9e2365	0.07721595
45	0x3dc3fa27	0.09569197
46	0xbe824604	-0.25444043
47	0x3e810aec	0.25203645
48	0x3d256f6d	0.040389467
49	0xbdb8e362	-0.09027745
50	0x3dea7d0b	0.11449631
51	0xbe6dc41a	-0.23219338
52	0xbddd117b	-0.1079435
53	0x3e3497c9	0.17636026
54	0x3def4431	0.11682928
55	0x3e1cabe4	0.15299946
56	0xbcd21a75	-0.025647381
57	0x3d580ece	0.052748494
58	0xbda59988	-0.080859244
59	0xbe6414d1	-0.22273566
60	0x3e388562	0.18019632
61	0x3e22e055	0.15905888
62	0x3e1a6b57	0.1508001
63	0xbe65727b	-0.22406952
64	0xbc18adfa	-0.009318823
65	0x3e8b3189	0.2718623
66	0xbe5111e1	-0.20416977
67	0x3e835680	0.25651932
68	0x3dbf47cc	0.09339866
69	0xbe4907a4	-0.19631821
70	0x3d8a429b	0.06750985
71	0x3e19b584	0.15010649
72	0x3e33e2dc	0.17567009
73	0x3cdfe31e	0.027329978
74	0xbdcb73b2	-0.099341765
75	0x3e50c92c	0.20389241
76	0xbe698924	-0.22806221
77	0xbcb68074	-0.022278048
78	0x3abec4d5	0.001455451
79	0xbdda53e9	-0.10660536
80	0xbc6d0492	-0.014466422
81	0x3e81789c	0.2528733
82	0x3e44fe9f	0.19237755
83	0x3c9b13cb	0.018930336
84	0x3dc0007c	0.093750924
85	0x3e504fba	0.20342913
86	0xbde3a5c3	-0.11115601
87	0xbe629939	-0.22128762
88	0x3da445bc	0.08021113
89	0xbe26bf35	-0.16283877
90	0xbe0ee012	-0.13952664
91	0x3d233ce6	0.039853
92	0x3e8c9c17	0.27462837
93	0x3e1989d2	0.1499398
94	0x3e219b76	0.1578196
95	0xbdeafff9	-0.11474604
96	0x3c8bf389	0.0170839
97	0xbbead540	-0.0071665347
98	0xbe868847	-0.26275846
99	0x3cead62f	0.028666584
100	0x3e1cfc18	0.15330541
101	0xbddf3df3	-0.10900488
102	0xbdb0024d	-0.08594189
103	0xbd99a605	-0.07502369
104	0xbdfa7ea8	-0.12231189
105	0x3db80372	0.08985032
106	0x3e4fef6d	0.20306177
107	0x3d87f6c3	0.06638863
108	0x3de4d2d0	0.11173022
109	0xbdbc149e	-0.0918362
110	0x3e78e327	0.24305402
111	0xbe65cfb6	-0.22442517
112	0xbde3dd95	-0.11126248
113	0x3d9b91d8	0.07596177
114	0xbdd01d9c	-0.101618975
115	0x3e302450	0.17201352
116	0xbdc28da1	-0.0949967
117	0xbe7a2da1	-0.24431469
118	0xbbbfe6bd	-0.0058563636
119	0x3d516a88	0.051126987
120	0x3e7617e1	0.24032547
121	0xbe1e5de3	-0.15465502
122	0xbd78be35	-0.06072827
123	0xbdc60b34	-0.096701056
124	0x3d78c0f2	0.060730882
125	0x3e808eb6	0.2510888
126	0xbd9a8942	-0.07545711
127	0x3e463877	0.19357477
128	0x3e6ba216	0.2301105
129	0x3da76d57	0.08175152
130	0x3e75ed52	0.24016312
131	0x3e62211e	0.22082946
132	0xbe1293f3	-0.1431425
133	0x3e81a909	0.25324276
134	0xbe28a814	-0.16470367
135	0x3d246c11	0.040142123
136	0xbc78fb3e	-0.01519662
137	0xbddebbab	-0.108756386
138	0xbe10d801	-0.14144899
139	0xbe8e83fe	-0.27835077
140	0x3ded18ab	0.11576971
141	0x3e532cdd	0.20622583
142	0x3e8ade9e	0.27122968
143	0x3e804be4	0.250579
144	0xbce2bfc5	-0.027679333
145	0xbe4b11ae	-0.19830963
146	0x3dffbb7a	0.1248693
147	0x3e0e8493	0.1391776
148	0xbe378d56	-0.17925009
149	0xbe7f38fd	-0.24924083
150	0x3cd8d2a9	0.026467638
151	0x3d02e2f0	0.031954706
152	0xbe8102a8	-0.2519734
153	0x3cb806bb	0.022464147
154	0xbe5b51b8	-0.21417892
155	0xbe89491f	-0.268136
156	0x3e8a8b8a	0.27059585
157	0x3e866446	0.26248378
158	0xbdfb7e64	-0.122799665
159	0x3dbf726c	0.09347996
160	0xbe20b9d8	-0.15695894
161	0xbdb78562	-0.08960988
162	0xbe8720bd	-0.26392165
163	0x3e652f50	0.2238133
164	0x3e6cccfa	0.23125067
165	0x3de2520b	0.11050805
166	0xbe4ffbf1	-0.20310952
167	0x3d7321a0	0.05935824
168	0xbe1b27f3	-0.15151958
169	0xbe7a156a	-0.24422231
170	0xbe5c4c90	-0.21513581
171	0xbdf380b6	-0.11889784
172	0x3de34857	0.11097782
173	0x3e802dad	0.25034848
174	0x3e8d2bec	0.27572572
175	0x3dcbd2c6	0.09952311
176	0xbe0ba456	-0.13636908
177	0x3e010506	0.12599573
178	0x3e3b9b6f	0.18321012
179	0x3e5842cd	0.21119232
180	0x3e778c06	0.24174508
181	0xbe249035	-0.16070636
182	0xbc9cfbce	-0.019163039
183	0xbe62869b	-0.2212166
184	0x3d287df1	0.041135732
185	0x3e73171b	0.23739283
186	0xbd24f037	-0.04026815
187	0xbdc5c85a	-0.09657355
188	0x3cf97d87	0.030455364
189	0xbe4f7e76	-0.20263085
190	0x3e30f061	0.17279197
191	0xbe3feeb8	-0.18743408
192	0xbd8a8bfc	-0.06764981
193	0x3e7eae94	0.24871284
194	0x3def64fb	0.11689182
195	0x3da49271	0.08035744
196	0x3b5f01bc	0.0034028133
197	0x3e867b93	0.26266155
198	0x3e5c2f85	0.21502502
199	0x3e104ce1	0.14091827
200	0x3d876895	0.06611744
201	0xbe107a18	-0.14109075
202	0x3d98b088	0.07455546
203	0xbd8b4abf	-0.06801366
204	0x3e56d09c	0.20978016
205	0xbe0e364d	-0.13887902
206	0x3e051000	0.12994385
207	0xbd941132	-0.07229842
208	0xbe0584b7	-0.13038908
209	0x3e6878c8	0.22702324
210	0xbdfc1f5d	-0.123106696
211	0x3d652e3e	0.055952303
212	0x3d3709f3	0.044687223
213	0xbe7911bb	-0.2432317
214	0xbe1e4d2e	-0.15459129
215	0xbc785a1f	-0.015158205
216	0xbe6448fe	-0.2229347
217	0x3da866dd	0.082227446
218	0x3e4855c4	0.19563967
219	0xbb92183e	-0.0044584563
220	0xbde4ec83	-0.111779235
221	0x3caac6db	0.020846775
222	0xbe6dfdca	-0.23241344
223	0xbd458fbe	-0.048232786
224	0x3e37e512	0.17958477
225	0x3d6f249f	0.058384534
226	0x3d4a1754	0.049338654
227	0xbe89070b	-0.26763186
228	0xbd4ae9bf	-0.049539324
229	0x3e81b7d7	0.2533557
230	0xbd3ce0a4	-0.04611267
231	0xbe65e2d0	-0.22449803
232	0xbe26915a	-0.16266385
233	0x3c498994	0.012300868
234	0x3e604986	0.21903047
235	0xbd0d27ef	-0.03446191
236	0xbd8b8e0a	-0.06814201
237	0x3e21f431	0.15815808
238	0x3df28219	0.118412204
239	0xbd2b7c1c	-0.041866407
240	0x3e07d238	0.13263786
241	0xbe5f81e4	-0.21826893
242	0xbd11a9b6	-0.03556224
243	0x3dae6961	0.08516193
244	0x3e6fa52f	0.23402856
245	0xbe30c33f	-0.1726198
246	0xbe88d249	-0.26722935
247	0x3e7edacd	0.24888153
248	0x3e31dcf0	0.17369437
249	0x3e8fa948	0.2805884
250	0x3e4292ea	0.19001356
251	0x3dd3d72f	0.103437774
252	0x3bb1b799	0.005423498
253	0x3e0df46e	0.13862774
254	0xbdb29547	-0.08719879
255	0xbdf84dc0	-0.12124205

transformer.encoder.layers.0.linear1.bias f4 [64]
0	0xbdf2c197	-0.118533306
1	0x3e40d127	0.18829785
2	0xbe62a8ca	-0.221347
3	0x3e754ffa	0.2395629
4	0xbe7635ca	-0.24043956
5	0xbe58a9a5	-0.21158464
6	0xbe0c4e07	-0.1370164
7	0xbd844cf5	-0.06459991
8	0x3e51194c	0.20419806
9	0x3dc945e8	0.09827787
10	0x3df12200	0.11774063
11	0x3e76dbe7	0.24107324
12	0x3db5e775	0.088820376
13	0x3dc8f5e5	0.09812526
14	0x3d22a5a3	0.039708745
15	0xbe268742	-0.16262534
16	0xbcbcfefe	-0.023070809
17	0x3e32cdfb	0.17461388
18	0xbe1841cc	-0.1486885
19	0x3d71ae57	0.059004154
20	0x3da498ec	0.0803698
21	0xbe6f7c9b	-0.23387377
22	0x3d82ce4f	0.063870065
23	0xbdb8fa6c	-0.09032139
24	0x3d1dd54e	0.0385335
25	0xbde779f0	-0.113025546
26	0x3e6fa417	0.23402439
27	0x3e1167a0	0.14199686
28	0x3e254fdf	0.1614375
29	0x3ca3aa9d	0.019978816
30	0x3e5790fc	0.21051401
31	0xbe571f05	-0.21007927
32	0xbdad1de4	-0.08452967
33	0xbe229441	-0.15876867
34	0x3e19635b	0.14979307
35	0xbe3cd1b5	-0.18439372
36	0xbd88c570	-0.06678283
37	0x3e427489	0.18989767
38	0x3e09fd15	0.1347545
39	0xbdcedcf1	-0.10100735
40	0x3ddcfb07	0.10790067
41	0x3e52dc1f	0.20591782
42	0xbd803c44	-0.06261495
43	0x3e48b5c1	0.19600584
44	0xbdeecdc3	-0.1166034
45	0xbda5ab11	-0.08089269
46	0x3d28f9a1	0.04125369
47	0xbd5ee13e	-0.054414026
48	0xbe633eb1	-0.22191884
49	0xbe5b2f41	-0.21404745
50	0x3d298630	0.041387737
51	0x3e2b09ee	0.16703007
52	0xbdfd2bc2	-0.12361862
53	0xbc6cbf09	-0.014449843
54	0x3db5f8bb	0.08885332
55	0xbe37e141	-0.17957021
56	0xbe03e8ec	-0.12881821
57	0xbe3db1f3	-0.18524913
58	0xbdffe09f	-0.12494015
59	0x3e102ae3	0.1407886
60	0xbe136e55	-0.14397557
61	0xbe2f213e	-0.17102525
62	0x3d5ebaee	0.05437749
63	0xbe17277a	-0.14761153

transformer.encoder.layers.0.linear2.weight f4 [16, 64]
0	0x3c0f6e25	0.008754288
1	0x3e370fcf	0.17877124
2	0xbd7f6a85	-0.062357444
3	0xbe5ac200	-0.21363068
4	0xbe4582cb	-0.19288175
5	0xbda43372	-0.08017625
6	0xbe74b244	-0.23896128
7	0x3e77d24e	0.24201319
8	0xbe3ab043	-0.18231301
9	0xbdaefabc	-0.085439175
10	0xbcadbdf4	-0.02120874
11	0xbe1bea9b	-0.15226214
12	0xbb0d82c2	-0.002159283
13	0xbd8f61be	-0.07001065
14	0xbd01edeb	-0.031721037
15	0xbe40452c	-0.18776387
16	0x3d49cf54	0.04926999
17	0x3e0a033b	0.13477795
18	0x3e24ae99	0.16082229
19	0x3d4307ed	0.04761498
20	0x3e145277	0.14484583
21	0xbcfa60a7	-0.030563666
22	0xbd2cadb9	-0.042157862
23	0xbe465cd7	-0.19371353
24	0xbe3fa6f5	-0.18716033
25	0x3e483b1e	0.19553801
26	0xbdfc534e	-0.123205766
27	0xbe717305	-0.23579033
28	0xbdea5778	-0.114424646
29	0x3d41f6af	0.047354396
30	0xbe5b4329	-0.21412338
31	0xbe7d14c2	-0.2471495
32	0x3bdaa111	0.0066720326
33	0x3cdee813	0.027210271
34	0x3e753680	0.23946571
35	0x3e2bcc60	0.16777182
36	0x3e866b9d	0.26253977
37	0x3e849d65	0.25901332
38	0xbe8392d2	-0.25697953
39	0x3e5c00a6	0.21484622
40	0xbd671249	-0.056413922
41	0x3e5bbb7f	0.21458243
42	0xbe6fdb4d	-0.234235
43	0xbd4bddb4	-0.04977198
44	0xbe4a58f2	-0.19760492
45	0x3e810de5	0.25205913
46	0xbe2eb7c4	-0.17062289
47	0xbe7b83a3	-0.24561934
48	0x3e612f53	0.21990709
49	0xbcd1ddac	-0.025618397
50	0xbe6ad821	-0.22934009
51	0x3e30a230	0.1724937
52	0xbdb9bed1	-0.090695985
53	0x3dad84c8	0.08472592
54	0xbe776ccb	-0.24162595
55	0x3e168706	0.14699945
56	0x3e3d0987	0.18460666
57	0xbe823c59	-0.25436667
58	0x3e0fe89e	0.1405358
59	0x3ce611b0	0.028084606
60	0x3e21b4bc	0.15791601
61	0xbe8bb6da	-0.27287942
62	0xbe7bd628	-0.24593413
63	0xbd338909	-0.04383186
64	0x3c59b640	0.013288081
65	0xbdd341e3	-0.10315301
66	0xbdecefac	-0.11569151
67	0x3e07a4ff	0.13246535
68	0x3c381f34	0.011237908
69	0x3e5cd8b9	0.21567048
70	0x3e29456c	0.16530389
71	0xbe7fec80	-0.24992561
72	0x3e89650c	0.26834905
73	0xbe837ea6	-0.25682563
74	0x3e478f8f	0.19488357
75	0x3e686761	0.22695686
76	0xbdb94e99	-0.090481944
77	0x3e53ecd0	0.20695806
78	0x3d23e604	0.040014282
79	0x3e5efe2d	0.21776648
80	0x3deceb0a	0.11568268
81	0x3e46761f	0.19380997
82	0xbd74cf44	-0.059767976
83	0xbd29e0d3	-0.041474175
84	0xbdf0bcbf	-0.117547505
85	0xbe1dd957	-0.1541494
86	0xbd05fea7	-0.03271356
87	0xbe425190	-0.18976426
88	0x3dd528f1	0.104081996
89	0x3d7d4eb7	0.061842646
90	0x3d427ea9	0.047484074
91	0x3d1efc20	0.038814664
92	0xbe2ac300	-0.16675949
93	0x3e79cbfe	0.24394223
94	0xbe0232f8	-0.12714756
95	0x3e4e253d	0.20131393
96	0xbd550fde	-0.052017085
97	0xbe6ba3ba	-0.23011675
98	0xbe76a0e5	-0.24084814
99	0x3d90f05b	0.07077094
100	0xbd82e8cd	-0.063920595
101	0x3dfbc42e	0.12293278
102	0x3e6a6528	0.2289015
103	0x3e2974d2	0.1654847
104	0xbe372d34	-0.17888337
105	0x3da5a063	0.08087232
106	0x3dbd73fd	0.09250639
107	0x3e7cf5cb	0.24703138
108	0x3ddba670	0.10725105
109	0xbda99b45	-0.082815684
110	0xbe4a7b8e	-0.19773695
111	0xbde92bdc	-0.11385319
112	0xbdce67be	-0.10078381
113	0x3e28337b	0.16425888
114	0xbe3b4745	-0.18288906
115	0x3e77be69	0.2419373
116	0x3e48584d	0.19564934
117	0xbd9944b9	-0.07483811
118	0xbe82fe32	-0.2558456
119	0x3dda0fe2	0.10647561
120	0xbe0fc206	-0.14038858
121	0xbd173f77	-0.03692576
122	0x3d7f2845	0.062294263
123	0xbdbf5cc9	-0.09343869
124	0x3de1b510	0.11020863
125	0x3e7f5a3f	0.2493677
126	0x3df8142d	0.12113223
127	0xbe7cbf5b	-0.24682371
128	0x3e71fd97	0.23631893
129	0x3e24f02c	0.16107243
130	0x3e5d9621	0.21639301
131	0xbe1fa896	-0.15591654
132	0x3d9c993c	0.07646415
133	0x3de8db66	0.11369972
134	0x3c9f99a4	0.019482441
135	0xbd888602	-0.06666185
136	0xbe7652fa	-0.2405509
137	0x3e0179a2	0.12644055
138	0xbd036e34	-0.03208752
139	0x3e41546c	0.1887986
140	0xbd8b8ca5	-0.06813935
141	0x3e249a62	0.16074517
142	0x3e26345f	0.16230915
143	0x3e63865b	0.22219221
144	0x3dd436a4	0.10361984
145	0x3bc2c4a0	0.0059438497
146	0xbe38c125	-0.18042429
147	0xbd7910ca	-0.060807027
148	0x3e13bcd0	0.14427495
149	0x3e25320a	0.1613237
150	0xbe734870	-0.23758101
151	0xbdc8afed	-0.0979918
152	0x3b494c09	0.0030715487
153	0x3e002b40	0.12516499
154	0x3c137556	0.009000143
155	0xbce51d91	-0.0279682
156	0xbe61086c	-0.21975869
157	0xbe442088	-0.19153035
158	0x3e07afa4	0.13250595
159	0xbe833303	-0.25624856
160	0xbe3ed3ce	-0.18635485
161	0x3d39ed13	0.045392107
162	0xbd8a6fe9	-0.067596264
163	0xbe60dfe6	-0.2196041
164	0x3e314337	0.17310797
165	0xbe6c68ac	-0.23086804
166	0x3d37f1bd	0.044908274
167	0xbe4d5826	-0.20053157
168	0xbd94d4a7	-0.07267123
169	0x3e60679d	0.21914525
170	0x3e8618a2	0.26190668
171	0x3e8849b0	0.2661872
172	0x3e485f2e	0.19567558
173	0x3ce22612	0.027606044
174	0xbe492cfe	-0.1964607
175	0xbdef06e0	-0.11671233
176	0x3dd436e2	0.103620306
177	0x3dc2e4c9	0.095162936
178	0x3c91369a	0.017726231
179	0x3daf11d7	0.085483246
180	0x3e8502ac	0.259786
181	0xbe46b2ab	-0.19404094
182	0x3cdea73f	0.027179359
183	0x3e0b2b59	0.13590755
184	0x3d1d34e3	0.038380515
185	0x3e0dcf37	0.13848577
186	0x3d39022a	0.04516808
187	0x3e29cfcc	0.16583174
188	0x3e6fe6ae	0.23427841
189	0xbc0877a7	-0.008329309
190	0xbe88aa20	-0.26692295
191	0x3e6e0767	0.23245011
192	0x3d5fcd80	0.05463934
193	0xbcdf370f	-0.027247934
194	0x3d86ef0b	0.065885626
195	0x3bccfb4c	0.006255543
196	0x3d8e0604	0.06934741
197	0xbd1ba19e	-0.037995927
198	0x3e37d8cd	0.17953797
199	0x3b9b206a	0.0047340887
200	0x3e76bf89	0.24096502
201	0xbdc85b0b	-0.0978299
202	0x3c35d43c	0.011097964
203	0xbc1b65bb	-0.009484704
204	0x3e75cf45	0.24004848
205	0xbe3f8990	-0.1870482
206	0x3e468407	0.19386302
207	0xbe828118	-0.25489116
208	0xbe4d1336	-0.2002686
209	0xbdf54c63	-0.1197746
210	0x3e515d44	0.20445734
211	0x3d29a066	0.041412733
212	0x3e6733db	0.22578375
213	0x3d9ddebe	0.077085
214	0x3dbb8610	0.0915643
215	0x3d9d041a	0.07666798
216	0x3d21e587	0.039525535
217	0x3d2e62ca	0.04257468
218	0xbe4b3055	-0.19842656
219	0xbe26d021	-0.16290332
220	0xbe7d009b	-0.24707262
221	0xbe1c3cf8	-0.15257633
222	0xbe3526c6	-0.17690572
223	0xbdea1e2f	-0.11431538
224	0xbe3c25fd	-0.18373866
225	0x3c298c8e	0.010348452
226	0x3c87e9e5	0.016591022
227	0xbe161156	-0.1465505
228	0xbce7d0ed	-0.028297866
229	0x3e3da666	0.18520507
230	0xbe41e52d	-0.1893508
231	0xbe108e1e	-0.14116713
232	0xbe296218	-0.16541326
233	0xbe71d1fb	-0.23615257
234	0x3d956d59	0.07296247
235	0x3dcf3136	0.10116808
236	0x3bc4cc51	0.0060058017
237	0xbe83fbc4	-0.2577802
238	0xbe2498a1	-0.16073848
239	0xbe5eadf2	-0.21746042
240	0x3e831b74	0.25606883
241	0xbcb41ecc	-0.021987341
242	0x3d234e57	0.039869633
243	0xbc1deca8	-0.009638943
244	0x3e35b453	0.1774457
245	0x3d07f51f	0.03319275
246	0x3e5a816a	0.2133843
247	0x3e0fcdfd	0.14043422
248	0xbdccd65f	-0.100018255
249	0x3dc803af	0.097663276
250	0xbe4a864d	-0.19777794
251	0xbe1ebc44	-0.15501505
252	0x3e72182f	0.23642038
253	0xbe18a100	-0.14905167
254	0x3e5be42b	0.21473758
255	0x3d54637c	0.05185269

transformer.encoder.layers.0.linear2.bias f4 [16]
0	0x3d94b1a9	0.072604485
1	0xbd822944	-0.06355527
2	0xbd6edf8b	-0.058318656
3	0x3b6e0138	0.0036316644
4	0x3c3d6cdf	0.011561601
5	0x3dd3685b	0.103226386
6	0xbd88897c	-0.06666848
7	0x3d773374	0.060351804
8	0xbd2d9355	-0.042376835
9	0xbc2276e3	-0.00991604
10	0xbde30092	-0.11084093
11	0xbde7b3dc	-0.11313602
12	0xbda9f6b1	-0.08299006
13	0xbd680594	-0.056645945
14	0x3cd87ea4	0.026427574
15	0x3dc67701	0.09690667

transformer.encoder.layers.0.norm1.weight f4 [16]
0	0x3f811022	1.0083048
1	0x3f7c2eb0	0.9850874
2	0x3f79c7cc	0.9757049
3	0x3f7ef50c	0.9959266
4	0x3f80238e	1.001085
5	0x3f800abe	1.0003278
6	0x3f7e9f8e	0.9946221
7	0x3f7d8b4b	0.9904067
8	0x3f812155	1.0088297
9	0x3f80a9c2	1.0051806
10	0x3f7ce5f1	0.9878836
11	0x3f7fa812	0.9986583
12	0x3f81217d	1.0088345
13	0x3f7ebd29	0.99507385
14	0x3f811b0c	1.0086379
15	0x3f7da764	0.9908354

transformer.encoder.layers.0.norm1.bias f4 [16]
0	0x3bb06474	0.0053830687
1	0xbaee57b0	-0.0018184092
2	0x3c1c033b	0.009522255
3	0xbb4ca5b4	-0.0031226696
4	0x3b9cac86	0.0047813086
5	0x3b95f291	0.0045760353
6	0xb92946a9	-0.00016143419
7	0x3b8574b7	0.0040727514
8	0xbc88d542	-0.016703252
9	0xbbcceb55	-0.0062536397
10	0xbab67adc	-0.0013922113
11	0xbbc22185	-0.005924406
12	0x3c1e7176	0.009670606
13	0xbb34c683	-0.0027584143
14	0x3c7b0e75	0.015323271
15	0xbc8cb929	-0.017178135

transformer.encoder.layers.0.norm2.weight f4 [16]
0	0x3f8182c3	1.011803
1	0x3f7e807c	0.994148
2	0x3f7a89c5	0.9786647
3	0x3f7ba42a	0.9829737
4	0x3f8008d2	1.0002692
5	0x3f801ae4	1.0008206
6	0x3f7f8b87	0.99822277
7	0x3f7c0df5	0.98458797
8	0x3f81b2aa	1.0132649
9	0x3f7e8d40	0.9943428
10	0x3f7fa124	0.99855256
11	0x3f7fd881	0.99939734
12	0x3f803320	1.0015602
13	0x3f7ec895	0.99524814
14	0x3f810b94	1.0081658
15	0x3f7ec892	0.99524796

transformer.encoder.layers.0.norm2.bias f4 [16]
0	0x3b25d7ed	0.0025305704
1	0x39792a82	0.00023762326
2	0x3b6ab516	0.0035813502
3	0xbbba4741	-0.0056847637
4	0x3bff4dba	0.007791248
5	0xba813bc5	-0.0009859732
6	0x3ab972f1	0.0014148635
7	0x3b5aaaab	0.0033365886
8	0xbc481291	-0.012211458
9	0x3af81421	0.0018926897
10	0xb887a68e	-6.468325e-05
11	0x3aa99f14	0.0012941086
12	0x3b8eba68	0.0043557175
13	0xbb63718c	-0.003470513
14	0x3c222862	0.009897323
15	0xbc12ea1d	-0.00896695
