revin_transformer_model_best.pth (torch, 732985 bytes, 76 tensors)

mom_missing_token f4 [1, 1, 8]
0	0x3c8b4b40	0.017003655
1	0x3ce4674c	0.027881287
2	0xbb90b64c	-0.0044162627
3	0xbbaa387e	-0.0051947227
4	0x3c4e90fb	0.012607808
5	0xbd2c69d6	-0.04209312
6	0x3d02a170	0.03189224
7	0x3cecb6c9	0.028895753

child_missing_token f4 [1, 1, 8]
0	0x3c4effee	0.012634261
1	0xbd41be91	-0.04730088
2	0xbc1cd8ad	-0.009573144
3	0xbcbeacf6	-0.023275834
4	0xbc87a637	-0.01655875
5	0xbb903a91	-0.004401513
6	0xba3f7e31	-0.0007304876
7	0xbc08ad98	-0.008342169

input_proj_mom.weight f4 [8, 2]
0	0x3f066eb0	0.52512646
1	0xbec7584e	-0.3893456
2	0x3e5ec2ff	0.21754073
3	0xbf32e1ce	-0.698758
4	0xbec77977	-0.38959858
5	0x3e4cb699	0.1999153
6	0x3e84291b	0.2581261
7	0xbf10b225	-0.56521827
8	0xbe0847de	-0.13308665
9	0x3f09faff	0.53898615
10	0xbdc74a4b	-0.09730967
11	0xbefcf441	-0.494051
12	0x3e30f5b4	0.17281228
13	0xbf239271	-0.63895327
14	0x3f2be565	0.67146903
15	0xba941351	-0.0011297261

input_proj_mom.bias f4 [8]
0	0x3e846533	0.2585846
1	0x3e916373	0.28396186
2	0xbf16a0c4	-0.5883906
3	0xbe7aac8a	-0.24479881
4	0x3ee0034f	0.43752524
5	0xbee834b2	-0.45352703
6	0xbe5fbe42	-0.21849921
7	0xbd97411c	-0.073854655

input_proj_child.weight f4 [8, 2]
0	0x3e899d5d	0.2687787
1	0xbf1b47f4	-0.60656667
2	0x3e6f65aa	0.23378626
3	0xbf098e12	-0.5373241
4	0xbedd88a8	-0.43268323
5	0x3ec4864d	0.38383713
6	0x3df8d549	0.12150056
7	0xbed64b40	-0.41854286
8	0xbd08743e	-0.033313982
9	0xbe942019	-0.2893074
10	0xbef50363	-0.47854146
11	0xbebe21ba	-0.37135106
12	0x3dd0959a	0.10184784
13	0x3ef6b50f	0.48185012
14	0x3ee0ddb4	0.43919146
15	0x3e604d43	0.21904473

input_proj_child.bias f4 [8]
0	0x3e735fd9	0.23767032
1	0xbf0166f2	-0.5054771
2	0xbebfafd2	-0.37438828
3	0xbf0a92b1	-0.54130083
4	0xbe280056	-0.16406378
5	0xbea268f3	-0.31720695
6	0x3f251f8e	0.64501274
7	0xbefdf3ae	-0.49599975

pos_encoder.pe f4 [1, 5000, 16]
0	0x00000000	0.0
1	0x3f800000	1.0
2	0x00000000	0.0
3	0x3f800000	1.0
4	0x00000000	0.0
5	0x3f800000	1.0
6	0x00000000	0.0
7	0x3f800000	1.0
8	0x00000000	0.0
9	0x3f800000	1.0
10	0x00000000	0.0
11	0x3f800000	1.0
12	0x00000000	0.0
13	0x3f800000	1.0
14	0x00000000	0.0
15	0x3f800000	1.0
16	0x3f576aa4	0.84147096
17	0x3f0a5141	0.54030234
18	0x3e9f393e	0.3109836
19	0x3f734e6b	0.9504153
20	0x3dcc7576	0.099833414
21	0x3f7eb898	0.9950042
22	0x3d01815b	0.031617504
23	0x3f7fdf3c	0.99950004
24	0x3c23d657	0.009999833
25	0x3f7ffcb9	0.99995
26	0x3b4f3e1c	0.0031622713
27	0x3f7fffac	0.999995
28	0x3a83126d	0.0009999998
29	0x3f7ffff8	0.9999995
30	0x39a5cb61	0.00031622782
31	0x3f7fffff	0.99999994
32	0x3f68c7b7	0.9092974
33	0xbed51133	-0.41614684
34	0x3f17541b	0.5911271
35	0x3f4e7bec	0.8065784
36	0x3e4b6ff8	0.19866931
37	0x3f7ae5a5	0.9800666
38	0x3d8170c8	0.063203394
39	0x3f7f7cf9	0.9980007
40	0x3ca3d43e	0.019998666
41	0x3f7ff2e5	0.9998
42	0x3bcf3dd8	0.006324511
43	0x3f7ffeb1	0.99998003
44	0x3b031268	0.0019999985
45	0x3f7fffdf	0.99999803
46	0x3a25cb60	0.0006324556
47	0x3f7ffffd	0.9999998
48	0x3e1081c3	0.14112
49	0xbf7d7026	-0.9899925
50	0x3f5009c2	0.8126489
51	0x3f152f58	0.58275366
52	0x3e974e6c	0.2955202
53	0x3f7490ef	0.9553365
54	0x3dc1ffc0	0.094726086
55	0x3f7ed94f	0.99550337
56	0x3cf5b91f	0.0299955
57	0x3f7fe283	0.99955004
58	0x3c1b6e0d	0.009486687
59	0x3f7ffd0d	0.999955
60	0x3b449b92	0.0029999954
61	0x3f7fffb5	0.9999955
62	0x3a78b110	0.00094868336
63	0x3f7ffff9	0.9999996
64	0xbf41bdcf	-0.7568025
65	0xbf275530	-0.6536436
66	0x3f741dde	0.95358074
67	0x3e9a2eb1	0.30113748
68	0x3ec761d7	0.38941833
69	0x3f6bcaa7	0.921061
70	0x3e012e88	0.12615407
71	0x3f7df469	0.99201065
72	0x3d23cbdb	0.039989334
73	0x3f7fcb94	0.9992001
74	0x3c4f3cc9	0.01264877
75	0x3f7ffac2	0.99992
76	0x3b831257	0.003999989
77	0x3f7fff7a	0.999992
78	0x3aa5cb5e	0.0012649109
79	0x3f7ffff3	0.9999992
80	0xbf757c10	-0.9589243
81	0x3e913c2c	0.2836622
82	0x3f7ffc7f	0.99994653
83	0xbc2972e9	-0.010342338
84	0x3ef57743	0.47942552
85	0x3f60a940	0.87758255
86	0x3e213c1d	0.15745588
87	0x3f7cce81	0.987526
88	0x3d4cb6f4	0.049979165
89	0x3f7fae19	0.99875027
90	0x3c81857e	0.015810724
91	0x3f7ff7cf	0.999875
92	0x3ba3d6dd	0.004999979
93	0x3f7fff2e	0.9999875
94	0x3acf3e33	0.0015811383
95	0x3f7fffeb	0.99999875
96	0xbe8f0f8c	-0.2794155
97	0x3f75cdb8	0.96017027
98	0x3f72784e	0.9471482
99	0xbea43f6d	-0.3207964
100	0x3f108c68	0.5646424
101	0x3f534932	0.8253356
102	0x3e41206e	0.18860027
103	0x3f7b67e3	0.98205394
104	0x3d759cd1	0.059964005
105	0x3f7f8a12	0.99820054
106	0x3c9b6c43	0.018972522
107	0x3f7ff434	0.99982
108	0x3bc49b58	0.0059999637
109	0x3f7ffed2	0.999982
110	0x3af8b108	0.0018973658
111	0x3f7fffe2	0.9999982
112	0x3f283046	0.6569866
113	0x3f40ffbd	0.75390226
114	0x3f4ce86e	0.8004216
115	0xbf1974bc	-0.5994375
116	0x3f24eb72	0.6442176
117	0x3f43ccb3	0.7648422
118	0x3e60d350	0.2195561
119	0x3f79c0ea	0.9755999
120	0x3d8f3e32	0.06994285
121	0x3f7f5f81	0.997551
122	0x3cb552a2	0.022134129
123	0x3f7feff2	0.999755
124	0x3be55fc5	0.006999942
125	0x3f7ffe65	0.9999755
126	0x3b1111ed	0.0022135929
127	0x3f7fffd7	0.99999756
128	0x3f7d4695	0.98935825
129	0xbe14fdf6	-0.14550003
130	0x3f13067e	0.5743178
131	0xbf5191e5	-0.8186324
132	0x3f37a4a5	0.717356
133	0x3f325b5f	0.6967067
134	0x3e802651	0.25029233
135	0x3f77da02	0.9681703
136	0x3da3aa50	0.07991469
137	0x3f7f2e65	0.9968017
138	0x3ccf388a	0.025295515
139	0x3f7feb08	0.99968004
140	0x3c031212	0.007999914
141	0x3f7ffde7	0.999968
142	0x3b25cb55	0.0025298197
143	0x3f7fffca	0.9999968
144	0x3ed30132	0.4121185
145	0xbf693fd5	-0.91113025
146	0x3e951fee	0.29125923
147	0xbf74e6a2	-0.9566442
148	0x3f48881c	0.78332686
149	0x3f1f21d5	0.62161
150	0x3e8fc22d	0.28077832
151	0x3f75b3a9	0.95977265
152	0x3db8123e	0.089878544
153	0x3f7ef6c2	0.9959527
154	0x3ce91dea	0.028456647
155	0x3f7fe576	0.99959505
156	0x3c13743a	0.008999879
157	0x3f7ffd59	0.9999595
158	0x3b3a84bc	0.0028460464
159	0x3f7fffbc	0.99999595
160	0xbf0b44f8	-0.5440211
161	0xbf56cd64	-0.8390715
162	0xbca97097	-0.02068357
163	0xbf7ff1fb	-0.9997861
164	0x3f576aa4	0.84147096
165	0x3f0a5141	0.54030234
166	0x3e9f393d	0.31098357
167	0x3f734e6b	0.9504153
168	0x3dcc7576	0.099833414
169	0x3f7eb898	0.9950042
170	0x3d018159	0.031617496
171	0x3f7fdf3c	0.99950004
172	0x3c23d657	0.009999833
173	0x3f7ffcb9	0.99995
174	0x3b4f3e22	0.0031622727
175	0x3f7fffac	0.999995
176	0xbf7fff5c	-0.9999902
177	0x3b910572	0.004425698
178	0xbea9411f	-0.33057496
179	0xbf719b8d	-0.94377977
180	0x3f64262a	0.89120734
181	0x3ee83dc3	0.4535962
182	0x3eae878b	0.34087786
183	0x3f70aae4	0.9401076
184	0x3de0d372	0.1097783
185	0x3f7e73e8	0.9939561
186	0x3d0e7368	0.03477803
187	0x3f7fd85b	0.9993951
188	0x3c343869	0.010999777
189	0x3f7ffc09	0.9999395
190	0x3b63f787	0.003478499
191	0x3f7fff9b	0.999994
192	0xbf095cd8	-0.53657293
193	0x3f5806d0	0.84385395
194	0xbf1b9124	-0.6076834
195	0xbf4b4f56	-0.7941793
196	0x3f6e9a1d	0.9320391
197	0x3eb986f7	0.36235783
198	0x3ebda92c	0.3704313
199	0x3f6dc9c3	0.9288599
200	0x3df52bac	0.119712204
201	0x3f7e28b5	0.99280864
202	0x3d1b6519	0.03793821
203	0x3f7fd0d2	0.9992801
204	0x3c449a70	0.011999711
205	0x3f7ffb48	0.999928
206	0x3b78b0eb	0.0037947248
207	0x3f7fff87	0.9999928
208	0x3ed72022	0.42016703
209	0x3f684e6f	0.9074468
210	0xbf53144c	-0.82452846
211	0xbf10d99d	-0.5658205
212	0x3f76abc0	0.9635582
213	0x3e88f59d	0.26749888
214	0x3ecc9a3f	0.3996143
215	0x3f6aabc3	0.9166834
216	0x3e04bed0	0.12963414
217	0x3f7dd700	0.9915619
218	0x3d285665	0.041098017
219	0x3f7fc8a1	0.9991551
220	0x3c54fc6a	0.012999633
221	0x3f7ffa76	0.9999155
222	0x3b86b526	0.00411095
223	0x3f7fff72	0.99999154
224	0x3f7d9872	0.9906074
225	0x3e0c04d7	0.13673721
226	0xbf75a8b3	-0.9596054
227	0xbe900d0a	-0.28134948
228	0x3f7c466f	0.98544973
229	0x3e2e0be7	0.16996728
230	0x3edb56f4	0.42839777
231	0x3f6751b1	0.90359026
232	0x3e0ee464	0.13954312
233	0x3f7d7ecc	0.990216
234	0x3d354743	0.044257414
235	0x3f7fbfc9	0.99902016
236	0x3c655e55	0.013999541
237	0x3f7ff994	0.999902
238	0x3b9111d6	0.004427175
239	0x3f7fff5c	0.9999902
240	0x3f267944	0.65028787
241	0xbf427ae8	-0.7596879
242	0xbf7fe075	-0.9995187
243	0x3cfe2296	0.031022351
244	0x3f7f5bd5	0.997495
245	0x3d90deba	0.07073732
246	0x3ee9db83	0.45675287
247	0x3f63bc68	0.8895936
248	0x3e19064f	0.14943813
249	0x3f7d201a	0.9887711
250	0x3d4237aa	0.047416367
251	0x3f7fb649	0.9988752
252	0x3c75c032	0.014999436
253	0x3f7ff8a1	0.9998875
254	0x3b9b6e85	0.0047433996
255	0x3f7fff43	0.99998873

pos_decoder.pe f4 [1, 5000, 16]
0	0x00000000	0.0
1	0x3f800000	1.0
2	0x00000000	0.0
3	0x3f800000	1.0
4	0x00000000	0.0
5	0x3f800000	1.0
6	0x00000000	0.0
7	0x3f800000	1.0
8	0x00000000	0.0
9	0x3f800000	1.0
10	0x00000000	0.0
11	0x3f800000	1.0
12	0x00000000	0.0
13	0x3f800000	1.0
14	0x00000000	0.0
15	0x3f800000	1.0
16	0x3f576aa4	0.84147096
17	0x3f0a5141	0.54030234
18	0x3e9f393e	0.3109836
19	0x3f734e6b	0.9504153
20	0x3dcc7576	0.099833414
21	0x3f7eb898	0.9950042
22	0x3d01815b	0.031617504
23	0x3f7fdf3c	0.99950004
24	0x3c23d657	0.009999833
25	0x3f7ffcb9	0.99995
26	0x3b4f3e1c	0.0031622713
27	0x3f7fffac	0.999995
28	0x3a83126d	0.0009999998
29	0x3f7ffff8	0.9999995
30	0x39a5cb61	0.00031622782
31	0x3f7fffff	0.99999994
32	0x3f68c7b7	0.9092974
33	0xbed51133	-0.41614684
34	0x3f17541b	0.5911271
35	0x3f4e7bec	0.8065784
36	0x3e4b6ff8	0.19866931
37	0x3f7ae5a5	0.9800666
38	0x3d8170c8	0.063203394
39	0x3f7f7cf9	0.9980007
40	0x3ca3d43e	0.019998666
41	0x3f7ff2e5	0.9998
42	0x3bcf3dd8	0.006324511
43	0x3f7ffeb1	0.99998003
44	0x3b031268	0.0019999985
45	0x3f7fffdf	0.99999803
46	0x3a25cb60	0.0006324556
47	0x3f7ffffd	0.9999998
48	0x3e1081c3	0.14112
49	0xbf7d7026	-0.9899925
50	0x3f5009c2	0.8126489
51	0x3f152f58	0.58275366
52	0x3e974e6c	0.2955202
53	0x3f7490ef	0.9553365
54	0x3dc1ffc0	0.094726086
55	0x3f7ed94f	0.99550337
56	0x3cf5b91f	0.0299955
57	0x3f7fe283	0.99955004
58	0x3c1b6e0d	0.009486687
59	0x3f7ffd0d	0.999955
60	0x3b449b92	0.0029999954
61	0x3f7fffb5	0.9999955
62	0x3a78b110	0.00094868336
63	0x3f7ffff9	0.9999996
64	0xbf41bdcf	-0.7568025
65	0xbf275530	-0.6536436
66	0x3f741dde	0.95358074
67	0x3e9a2eb1	0.30113748
68	0x3ec761d7	0.38941833
69	0x3f6bcaa7	0.921061
70	0x3e012e88	0.12615407
71	0x3f7df469	0.99201065
72	0x3d23cbdb	0.039989334
73	0x3f7fcb94	0.9992001
74	0x3c4f3cc9	0.01264877
75	0x3f7ffac2	0.99992
76	0x3b831257	0.003999989
77	0x3f7fff7a	0.999992
78	0x3aa5cb5e	0.0012649109
79	0x3f7ffff3	0.9999992
80	0xbf757c10	-0.9589243
81	0x3e913c2c	0.2836622
82	0x3f7ffc7f	0.99994653
83	0xbc2972e9	-0.010342338
84	0x3ef57743	0.47942552
85	0x3f60a940	0.87758255
86	0x3e213c1d	0.15745588
87	0x3f7cce81	0.987526
88	0x3d4cb6f4	0.049979165
89	0x3f7fae19	0.99875027
90	0x3c81857e	0.015810724
91	0x3f7ff7cf	0.999875
92	0x3ba3d6dd	0.004999979
93	0x3f7fff2e	0.9999875
94	0x3acf3e33	0.0015811383
95	0x3f7fffeb	0.99999875
96	0xbe8f0f8c	-0.2794155
97	0x3f75cdb8	0.96017027
98	0x3f72784e	0.9471482
99	0xbea43f6d	-0.3207964
100	0x3f108c68	0.5646424
101	0x3f534932	0.8253356
102	0x3e41206e	0.18860027
103	0x3f7b67e3	0.98205394
104	0x3d759cd1	0.059964005
105	0x3f7f8a12	0.99820054
106	0x3c9b6c43	0.018972522
107	0x3f7ff434	0.99982
108	0x3bc49b58	0.0059999637
109	0x3f7ffed2	0.999982
110	0x3af8b108	0.0018973658
111	0x3f7fffe2	0.9999982
112	0x3f283046	0.6569866
113	0x3f40ffbd	0.75390226
114	0x3f4ce86e	0.8004216
115	0xbf1974bc	-0.5994375
116	0x3f24eb72	0.6442176
117	0x3f43ccb3	0.7648422
118	0x3e60d350	0.2195561
119	0x3f79c0ea	0.9755999
120	0x3d8f3e32	0.06994285
121	0x3f7f5f81	0.997551
122	0x3cb552a2	0.022134129
123	0x3f7feff2	0.999755
124	0x3be55fc5	0.006999942
125	0x3f7ffe65	0.9999755
126	0x3b1111ed	0.0022135929
127	0x3f7fffd7	0.99999756
128	0x3f7d4695	0.98935825
129	0xbe14fdf6	-0.14550003
130	0x3f13067e	0.5743178
131	0xbf5191e5	-0.8186324
132	0x3f37a4a5	0.717356
133	0x3f325b5f	0.6967067
134	0x3e802651	0.25029233
135	0x3f77da02	0.9681703
136	0x3da3aa50	0.07991469
137	0x3f7f2e65	0.9968017
138	0x3ccf388a	0.025295515
139	0x3f7feb08	0.99968004
140	0x3c031212	0.007999914
141	0x3f7ffde7	0.999968
142	0x3b25cb55	0.0025298197
143	0x3f7fffca	0.9999968
144	0x3ed30132	0.4121185
145	0xbf693fd5	-0.91113025
146	0x3e951fee	0.29125923
147	0xbf74e6a2	-0.9566442
148	0x3f48881c	0.78332686
149	0x3f1f21d5	0.62161
150	0x3e8fc22d	0.28077832
151	0x3f75b3a9	0.95977265
152	0x3db8123e	0.089878544
153	0x3f7ef6c2	0.9959527
154	0x3ce91dea	0.028456647
155	0x3f7fe576	0.99959505
156	0x3c13743a	0.008999879
157	0x3f7ffd59	0.9999595
158	0x3b3a84bc	0.0028460464
159	0x3f7fffbc	0.99999595
160	0xbf0b44f8	-0.5440211
161	0xbf56cd64	-0.8390715
162	0xbca97097	-0.02068357
163	0xbf7ff1fb	-0.9997861
164	0x3f576aa4	0.84147096
165	0x3f0a5141	0.54030234
166	0x3e9f393d	0.31098357
167	0x3f734e6b	0.9504153
168	0x3dcc7576	0.099833414
169	0x3f7eb898	0.9950042
170	0x3d018159	0.031617496
171	0x3f7fdf3c	0.99950004
172	0x3c23d657	0.009999833
173	0x3f7ffcb9	0.99995
174	0x3b4f3e22	0.0031622727
175	0x3f7fffac	0.999995
176	0xbf7fff5c	-0.9999902
177	0x3b910572	0.004425698
178	0xbea9411f	-0.33057496
179	0xbf719b8d	-0.94377977
180	0x3f64262a	0.89120734
181	0x3ee83dc3	0.4535962
182	0x3eae878b	0.34087786
183	0x3f70aae4	0.9401076
184	0x3de0d372	0.1097783
185	0x3f7e73e8	0.9939561
186	0x3d0e7368	0.03477803
187	0x3f7fd85b	0.9993951
188	0x3c343869	0.010999777
189	0x3f7ffc09	0.9999395
190	0x3b63f787	0.003478499
191	0x3f7fff9b	0.999994
192	0xbf095cd8	-0.53657293
193	0x3f5806d0	0.84385395
194	0xbf1b9124	-0.6076834
195	0xbf4b4f56	-0.7941793
196	0x3f6e9a1d	0.9320391
197	0x3eb986f7	0.36235783
198	0x3ebda92c	0.3704313
199	0x3f6dc9c3	0.9288599
200	0x3df52bac	0.119712204
201	0x3f7e28b5	0.99280864
202	0x3d1b6519	0.03793821
203	0x3f7fd0d2	0.9992801
204	0x3c449a70	0.011999711
205	0x3f7ffb48	0.999928
206	0x3b78b0eb	0.0037947248
207	0x3f7fff87	0.9999928
208	0x3ed72022	0.42016703
209	0x3f684e6f	0.9074468
210	0xbf53144c	-0.82452846
211	0xbf10d99d	-0.5658205
212	0x3f76abc0	0.9635582
213	0x3e88f59d	0.26749888
214	0x3ecc9a3f	0.3996143
215	0x3f6aabc3	0.9166834
216	0x3e04bed0	0.12963414
217	0x3f7dd700	0.9915619
218	0x3d285665	0.041098017
219	0x3f7fc8a1	0.9991551
220	0x3c54fc6a	0.012999633
221	0x3f7ffa76	0.9999155
222	0x3b86b526	0.00411095
223	0x3f7fff72	0.99999154
224	0x3f7d9872	0.9906074
225	0x3e0c04d7	0.13673721
226	0xbf75a8b3	-0.9596054
227	0xbe900d0a	-0.28134948
228	0x3f7c466f	0.98544973
229	0x3e2e0be7	0.16996728
230	0x3edb56f4	0.42839777
231	0x3f6751b1	0.90359026
232	0x3e0ee464	0.13954312
233	0x3f7d7ecc	0.990216
234	0x3d354743	0.044257414
235	0x3f7fbfc9	0.99902016
236	0x3c655e55	0.013999541
237	0x3f7ff994	0.999902
238	0x3b9111d6	0.004427175
239	0x3f7fff5c	0.9999902
240	0x3f267944	0.65028787
241	0xbf427ae8	-0.7596879
242	0xbf7fe075	-0.9995187
243	0x3cfe2296	0.031022351
244	0x3f7f5bd5	0.997495
245	0x3d90deba	0.07073732
246	0x3ee9db83	0.45675287
247	0x3f63bc68	0.8895936
248	0x3e19064f	0.14943813
249	0x3f7d201a	0.9887711
250	0x3d4237aa	0.047416367
251	0x3f7fb649	0.9988752
252	0x3c75c032	0.014999436
253	0x3f7ff8a1	0.9998875
254	0x3b9b6e85	0.0047433996
255	0x3f7fff43	0.99998873

transformer.encoder.layers.0.self_attn.in_proj_weight f4 [48, 16]
0	0x3d72b0af	0.05925053
1	0x3e1251c2	0.14289
2	0x3e211f63	0.1573463
3	0x3e76f9bf	0.24118708
4	0x3d9b4584	0.075816184
5	0xbe000d51	-0.1250508
6	0x3e57ea87	0.21085559
7	0x3d746e04	0.05967523
8	0x3daf2980	0.08552837
9	0x3e70066f	0.23439954
10	0xbe8a04f2	-0.26956898
11	0x3e54e7f9	0.20791616
12	0xbe8400e0	-0.25781918
13	0x3e3bdf5d	0.18346925
14	0xbe8bedc6	-0.27329844
15	0xbe9dbabd	-0.30806533
16	0x3e2674e3	0.16255526
17	0xbe974523	-0.29544935
18	0x3df60170	0.12011993
19	0xbde6abdc	-0.11263248
20	0xbd8459d3	-0.06462445
21	0xbe1720fa	-0.14758673
22	0x3e628233	0.2211998
23	0x3e1d6603	0.15370946
24	0x3bf05676	0.0073345257
25	0x3e071615	0.13192017
26	0x3d5a3b40	0.05327916
27	0x3e987b73	0.29781684
28	0x3d877e41	0.06615878
29	0xbe724ed4	-0.23662883
30	0x3e05c861	0.1306472
31	0x3daae719	0.0834486
32	0xbd8e36c5	-0.0694404
33	0x3de3e5f2	0.11127843
34	0x3e43a9b2	0.19107702
35	0x3da2b33a	0.07944341
36	0x3e58c591	0.21169116
37	0x3e6b3334	0.22968751
38	0xbe80ed44	-0.2518102
39	0x3ccf2ac5	0.025288949
40	0xbdc6af55	-0.09701411
41	0xbe7d1648	-0.24715531
42	0xbe3da54f	-0.18520091
43	0x3dc163f2	0.09442891
44	0xbc94c189	-0.018158691
45	0xbd7afc28	-0.06127563
46	0x3e19eac7	0.15030967
47	0x3e58bb22	0.21165136
48	0x3db95adf	0.090505354
49	0xbd131aa5	-0.035914082
50	0xbe8ce066	-0.27514952
51	0xbd8d7ff4	-0.06909171
52	0x3e8ac843	0.27105913
53	0xba8ae19d	-0.0010595802
54	0x3d04616e	0.03231948
55	0x3da7c329	0.08191521
56	0xbe275544	-0.1634112
57	0x3dadf760	0.08494449
58	0xbe1ab86c	-0.15109414
59	0xbe8850e3	-0.26624212
60	0xbe7136ca	-0.23556057
61	0xbe0bd4fa	-0.13655463
62	0x3e556e76	0.20842919
63	0x3e2539b5	0.16135295
64	0x3dfcab3f	0.1233735
65	0x3e6ed293	0.23322515
66	0xbe839e4a	-0.25706702
67	0x3ddb5ccb	0.10711058
68	0xbe9c61c9	-0.30543354
69	0x3d2eca7c	0.042673573
70	0xbe7b9958	-0.24570215
71	0x3c873e81	0.016509296
72	0xbe3c38af	-0.18380998
73	0xbbdb6167	-0.006694961
74	0x3dbbd4f2	0.091714755
75	0x3e9da0f4	0.3078686
76	0xbe800c00	-0.25009155
77	0x3df38433	0.118904494
78	0xbe9d0f9f	-0.3067598
79	0xbe5deb85	-0.21671875
80	0x3e370810	0.1787417
81	0xbe8d11bc	-0.27552593
82	0xbd8b476f	-0.06800734
83	0x3c0d7d36	0.00863581
84	0xbe23d648	-0.1599971
85	0xbe64040c	-0.22267169
86	0x3d1df0dd	0.038559783
87	0x3e4117ac	0.18856686
88	0xbdf8ca5c	-0.12147972
89	0xbc676a96	-0.014124533
90	0xbe8bbbb1	-0.27291635
91	0x3e921d80	0.28538132
92	0xbe856002	-0.2604981
93	0x3e41dc99	0.18931808
94	0x3dfdd94c	0.12394962
95	0xbe89e21b	-0.26930317
96	0x3e284f98	0.16436613
97	0x3b7f8886	0.0038991286
98	0xbe1f9b32	-0.15586546
99	0xbd0576f0	-0.03258413
100	0x3e03c5d4	0.12868434
101	0xbe0cd05b	-0.13751356
102	0xbe8e2e0c	-0.27769506
103	0xbe40a584	-0.18813139
104	0x3dd71b89	0.10503299
105	0xbd15b99c	-0.036553964
106	0xbe3f3f4c	-0.1867649
107	0x3e764d92	0.24053028
108	0x3e321f94	0.17394859
109	0xbca2a3ab	-0.019853434
110	0x3d833093	0.06405749
111	0xbe880568	-0.26566625
112	0x3cef0487	0.029176963
113	0x3d70fdf1	0.058835927
114	0xbddeebda	-0.10884829
115	0xbdbebc05	-0.09313206
116	0x3e0cc680	0.13747597
117	0xbe361e89	-0.17785086
118	0x3dee6a8c	0.11641416
119	0x3da5f734	0.08103791
120	0xbc9974b8	-0.018732414
121	0x3d65574b	0.055991452
122	0x3e074ad0	0.13212132
123	0x3e34c93d	0.17654891
124	0x3e7cb94a	0.24680057
125	0x3e8c529a	0.2740677
126	0xbe7f105a	-0.24908581
127	0x3de4c017	0.11169451
128	0x3dd5181d	0.1040499
129	0x3e815917	0.25263283
130	0x3d28ed1a	0.041241743
131	0xbdf069d6	-0.117389366
132	0x3e47da4c	0.19516867
133	0x3e4f7e5e	0.20263049
134	0xbd95d64d	-0.07316265
135	0x3d932d4a	0.071863726
136	0xbe660fb2	-0.22466925
137	0xbe2bc75e	-0.16775271
138	0x3bc224f4	0.0059248153
139	0x3e09f2f8	0.13471591
140	0x3d37856f	0.044804987
141	0x3dc98ee6	0.09841709
142	0x3de3f1a1	0.111300714
143	0x3e063e91	0.13109805
144	0xbd482b55	-0.04886945
145	0xbe041f07	-0.12902461
146	0x3d0c87a1	0.034309033
147	0xbdc698cc	-0.096971124
148	0x3e4bd19f	0.19904183
149	0xbb5be306	-0.0033552065
150	0xbe7662a0	-0.2406106
151	0xbe01f754	-0.12692004
152	0xbe0e6cf7	-0.13908754
153	0xbe98bdfb	-0.29832444
154	0xbe8c4dfe	-0.27403253
155	0x3e4a79c7	0.19773017
156	0x3e4a9b78	0.19785869
157	0x3e3bbcd7	0.18333755
158	0xbdc5e461	-0.096627004
159	0xbdf04623	-0.117321275
160	0x3d9dae06	0.07699208
161	0x3ce36f7d	0.027763123
162	0xbd1b7f00	-0.037962914
163	0xbd67596e	-0.05648177
164	0x3dec0cdb	0.115258895
165	0x3de75eef	0.11297404
166	0xbe8b805e	-0.27246374
167	0x3e07da4e	0.1326687
168	0xbddb248b	-0.107003294
169	0x3e8f8aac	0.28035486
170	0x3ddbd352	0.107336655
171	0x3d60894d	0.05481844
172	0x3e3b48ea	0.18289533
173	0x3e8f144d	0.27945176
174	0xbe0db994	-0.13840324
175	0xbdcf962a	-0.101360634
176	0xbddac888	-0.106827796
177	0x3e9d61f2	0.3073879
178	0xbe66b515	-0.22530015
179	0xbe051370	-0.12995696
180	0x3e857ad3	0.2607027
181	0xbd50af80	-0.05094862
182	0xbdbd8c00	-0.092552185
183	0x3d606ab1	0.05478925
184	0x3e7c8cff	0.2466316
185	0xbd826ac2	-0.06368019
186	0xbe8512b3	-0.2599083
187	0xbafa659e	-0.0019103771
188	0x3d679cf6	0.056546174
189	0x3e7fc9f7	0.24979387
190	0x3cf46157	0.029831572
191	0xbe8f9e10	-0.2805028
192	0x3e8959d8	0.26826358
193	0x3de151a4	0.110019
194	0xbe8f2998	-0.2796142
195	0xbe371ad8	-0.17881334
196	0x3e81db58	0.25362659
197	0x3e262736	0.16225895
198	0xbe7073a1	-0.23481609
199	0x3e913025	0.28357044
200	0x3db42914	0.087968975
201	0x3e135fcc	0.14392012
202	0xbd44116f	-0.04786819
203	0x3d2a5b7b	0.04159115
204	0x3e178d03	0.14799885
205	0xbe758638	-0.23976982
206	0x3e40ec3b	0.18840115
207	0x3e2f0091	0.1709006
208	0xbe892125	-0.267831
209	0xbe8ea47b	-0.27859864
210	0xbdb45f52	-0.088072434
211	0xbe874918	-0.26422954
212	0x3e5fca15	0.21854432
213	0x3df50d40	0.11965418
214	0x3dce583a	0.10075422
215	0x3e409a8e	0.18808958
216	0x3e961b06	0.29317492
217	0xbde3d941	-0.11125422
218	0xbe8b21eb	-0.27174315
219	0xbe642ae8	-0.22281992
220	0x3e09d7a9	0.13461174
221	0xbd757775	-0.059928376
222	0x3e7fd70c	0.24984378
223	0x3d8663b3	0.06561985
224	0x3db0040e	0.08594523
225	0xbe75e115	-0.24011643
226	0xbe6c5ab9	-0.23081483
227	0xbd94a31d	-0.07257674
228	0x3d890389	0.066901274
229	0x3d45969e	0.048239343
230	0xbbed6b84	-0.007245483
231	0xbe15100b	-0.14556901
232	0xbe83e47e	-0.25760263
233	0x3d6f217f	0.058381554
234	0xbd2df88b	-0.042473357
235	0xbdaa69a1	-0.08320928
236	0x3e684a0b	0.22684495
237	0xbe84637a	-0.25857145
238	0x3e1c93d8	0.15290773
239	0xbd09c7ab	-0.033637684
240	0xbe27826b	-0.16358344
241	0x3cc47bf0	0.02398488
242	0x3e94ca97	0.29060814
243	0xbd7ae6c5	-0.061255235
244	0x3e8213f0	0.25405836
245	0x3e090904	0.13382345
246	0x3e981f2c	0.29711282
247	0xbe6f6bec	-0.23381013
248	0xbd321a0a	-0.043481864
249	0x3e880568	0.26566625
250	0x3e9b8dcd	0.30381623
251	0xbe8cf399	-0.275296
252	0xbd84aff8	-0.06478876
253	0x3e35dd18	0.17760122
254	0xbe1752db	-0.147777
255	0xbc70ae0c	-0.0146899335

transformer.encoder.layers.0.self_attn.in_proj_bias f4 [48]
0	0xbbf4486a	-0.0074549215
1	0xbbb995b2	-0.005663597
2	0x3b8a6808	0.0042238273
3	0x3bc47bc1	0.005996198
4	0xbb41c4a2	-0.0029566665
5	0xbc317ba5	-0.010832702
6	0x3c0c7c2d	0.008574528
7	0x3b3c0755	0.0028690894
8	0x3bf5a826	0.0074968515
9	0x3bfd07a1	0.0077218567
10	0x3c011651	0.007878856
11	0xbbc55296	-0.006021808
12	0x3adbdf94	0.0016775005
13	0xbb4968df	-0.0030732674
14	0x3bed0a13	0.007233867
15	0x3afb8ddc	0.0019192058
16	0x3ab551d0	0.0013833586
17	0xbabd124a	-0.0014425006
18	0x38faf408	0.00011966383
19	0x3954324b	0.00020236631
20	0x3aa78af2	0.0012782498
21	0x38e6a7c8	0.00010998506
22	0x3a049290	0.000505724
23	0xba505fa5	-0.00079488225
24	0x3b365492	0.0027821404
25	0x3a212ea4	0.00061486126
26	0x3b80ce33	0.003930831
27	0x3b30ebe9	0.0026996082
28	0x3a14291b	0.0005651877
29	0xba8a0f90	-0.0010533202
30	0xb7dae4b9	-2.6094132e-05
31	0xba014d13	-0.00049324444
32	0xbbd72b2c	-0.006566426
33	0x3b8e6e6c	0.0043466594
34	0xbb4789cb	-0.0030447121
35	0xbc549394	-0.0129746385
36	0xbc2e34c2	-0.010632696
37	0xbb9e3ffb	-0.0048294044
38	0xbb84a6e7	-0.0040482166
39	0xb98997d3	-0.00026243794
40	0xbbc06ef6	-0.0058726026
41	0x3bb758af	0.0055952887
42	0x3c1ab79b	0.009443189
43	0x3c3add84	0.0114053525
44	0x3baa878a	0.005204146
45	0xbbc7f5b5	-0.0061022886
46	0x3921b8a3	0.00015422939
47	0xbad20293	-0.0016022496

transformer.encoder.layers.0.self_attn.out_proj.weight f4 [16, 16]
0	0xbe33717a	-0.17523757
1	0xbe2e3ac2	-0.17014602
2	0xbe900af9	-0.2813337
3	0xbe90d8d4	-0.28290427
4	0x3d2b1746	0.041770242
5	0x3dda3962	0.10655476
6	0x3ea0d8cf	0.31415412
7	0x3dfd10b4	0.123567015
8	0x3e5b5915	0.21420701
9	0xbe671759	-0.225675
10	0xbe80fbf1	-0.25192216
11	0xbe21094c	-0.15726203
12	0xbea82009	-0.3283694
13	0x3cc39160	0.023873031
14	0xbe975f15	-0.2956473
15	0xbd552092	-0.052033015
16	0x3eccdbc9	0.40011433
17	0x3dd9753f	0.10618066
18	0xbe09fd84	-0.13475615
19	0x3d80131c	0.06253645
20	0x3db2a94c	0.08723697
21	0xbe26557e	-0.1624355
22	0x3ed1b844	0.40960896
23	0x3eceae32	0.40367275
24	0x3e89ed36	0.2693879
25	0xbec95f4d	-0.3933052
26	0xbed1bf1a	-0.4096611
27	0x3e315c50	0.1732037
28	0x3e0140b7	0.12622343
29	0x3e8bfe10	0.27342272
30	0x3ead6650	0.3386712
31	0xbe841b42	-0.25802046
32	0xbe485e13	-0.19567136
33	0x3db671d7	0.08908432
34	0xbdb990de	-0.09060834
35	0xbca36624	-0.019946165
36	0xbd4d1732	-0.05007095
37	0xbcffc4b4	-0.031221725
38	0x3e3ba6bd	0.18325324
39	0x3ecd90a8	0.40149426
40	0xbea837c4	-0.32855046
41	0xbe9df83a	-0.30853444
42	0x3ec0a505	0.376259
43	0x3e1bea8c	0.15226191
44	0x3d0eab91	0.034831587
45	0x3e8fb90f	0.28070876
46	0xbce1a67a	-0.027545203
47	0x3e8afa05	0.27143875
48	0xbe73d0c0	-0.238101
49	0xbe20347d	-0.15645023
50	0xbe28890e	-0.16458532
51	0xbe8ca7e1	-0.2747183
52	0xbe8e3d9a	-0.27781373
53	0x3e1e2e3e	0.15447327
54	0xbd8ab443	-0.067726634
55	0xbe8e09ce	-0.27741855
56	0x3ed4bd83	0.41550836
57	0xbdc0a1bc	-0.094058484
58	0xbedc59d6	-0.4303729
59	0x3e44ba36	0.19211659
60	0x3e941e72	0.28929478
61	0xbe574921	-0.2102399
62	0xbe8a075f	-0.2695875
63	0xbdad1041	-0.08450366
64	0xbe3762bf	-0.17908762
65	0x3eb8a49c	0.36063087
66	0x3e4a241b	0.19740336
67	0xbec27c44	-0.37985432
68	0xbde11568	-0.10990411
69	0xbeb4b383	-0.35293207
70	0xbe01bb33	-0.12669067
71	0xbe82f61f	-0.255784
72	0x3e124dac	0.14287442
73	0xbd2ef6ed	-0.042715956
74	0xbea4502d	-0.3209242
75	0xbe87f201	-0.26551822
76	0xbe8949b7	-0.26814052
77	0xbdbb9b9a	-0.09160538
78	0x3e8a24ec	0.26981294
79	0x3ed05a8b	0.4069408
80	0x3eb433a5	0.35195652
81	0x3ed27717	0.41106483
82	0x3e215385	0.15754516
83	0xbebf132a	-0.3731931
84	0x3e5a5ba8	0.21324027
85	0xbeb6e12c	-0.35718668
86	0xbea8c9f7	-0.32966587
87	0xbe979284	-0.2960397
88	0x3e0c9925	0.13730295
89	0x3eb28f89	0.34875134
90	0xbeca3e35	-0.39500585
91	0x3e05f1a5	0.13080461
92	0xbdf6c8ae	-0.12049995
93	0x3e3d77aa	0.1850268
94	0xbea3c4b6	-0.31986016
95	0xbeb7e65b	-0.35917935
96	0xbe56b600	-0.20967865
97	0xbe8fa9d5	-0.2805926
98	0x3cd7b669	0.026332097
99	0xbe9df6b1	-0.30852273
100	0x3e7e9528	0.24861586
101	0xbdf29ae4	-0.11845949
102	0x3ea31219	0.31849745
103	0x3debf3fd	0.115211464
104	0xbce08748	-0.027408257
105	0xbda6b0cf	-0.08139192
106	0x3de03515	0.109476246
107	0xbddf9f09	-0.109190054
108	0x3d032f78	0.03202769
109	0xbe331c94	-0.1749137
110	0xbebcd27d	-0.3687934
111	0xbee04188	-0.43799996
112	0x3e03c73d	0.12868972
113	0xbe81ab67	-0.25326082
114	0x3e153490	0.14570832
115	0x3ed445ba	0.41459447
116	0x3d4dd963	0.050256144
117	0x3e019f9a	0.1265854
118	0xbe3087b9	-0.17239274
119	0xbe7b12af	-0.24518846
120	0x3ead4809	0.3384402
121	0xbe3d001b	-0.18457071
122	0xbd1587c0	-0.036506414
123	0xbde21465	-0.11039046
124	0x3ed3a146	0.4133398
125	0x3e13a583	0.14418606
126	0xbde27834	-0.11058083
127	0x3ed069aa	0.40705615
128	0x3d8b64ab	0.0680631
129	0x3e55fd2e	0.20897362
130	0x3e448c13	0.19194059
131	0xbe8b0aa7	-0.27156565
132	0xbecd8176	-0.40137833
133	0xbed493d4	-0.41519034
134	0x3e427c42	0.18992713
135	0xbd9fad34	-0.07796708
136	0x3e38f0e7	0.18060647
137	0xbeb873d0	-0.36025858
138	0x3ecb5276	0.3971135
139	0x3e0e124c	0.13874167
140	0x3e76f6e9	0.24117626
141	0x3e3143c8	0.17311013
142	0x3ea56046	0.32300013
143	0xbbadaea6	-0.0053003607
144	0x3ebf75cb	0.37394556
145	0x3d7cb03e	0.061691515
146	0xbdbf3b9a	-0.0933754
147	0x3eada6f6	0.33916444
148	0x3ca0ef47	0.019645346
149	0x3cb49ca2	0.022047345
150	0x3e04bdf3	0.12963085
151	0x3ec9c846	0.3941061
152	0xbe87c856	-0.26520032
153	0x3e0ccdd5	0.13750394
154	0x3eda1bb9	0.42599276
155	0x3ec6794b	0.38764414
156	0x3e659db5	0.22423442
157	0xbd6a76a5	-0.057242054
158	0xbeb00be3	-0.3438407
159	0xbebcbbc1	-0.36861995
160	0xbe43972d	-0.19100638
161	0xbe9ac3ed	-0.30227605
162	0x3d4762f0	0.04867834
163	0xbd7c6470	-0.061619222
164	0x3ccbc615	0.024874726
165	0x3ea9f440	0.3319416
166	0x3e8fd7c8	0.28094316
167	0xbe0c2d5c	-0.13689178
168	0xbec95f3e	-0.39330477
169	0x3ed54256	0.41652173
170	0x3ec44659	0.3833492
171	0x3b83e5be	0.00402519
172	0xbe90fa5e	-0.28316015
173	0x3e0ef145	0.13959225
174	0xbe7293be	-0.23689172
175	0xbe83972d	-0.25701275
176	0xbebb5291	-0.3658643
177	0x3e43104a	0.19049183
178	0xbedbed74	-0.429546
179	0x3d4e9bfa	0.05044172
180	0xbe5134d6	-0.20430312
181	0xbe6e633e	-0.23280045
182	0x3ed6175a	0.4181469
183	0x3e71aed3	0.23601846
184	0x3ecf80df	0.40528008
185	0x3ea02883	0.31280908
186	0xbeb24651	-0.34819272
187	0x3e1c9d66	0.15294418
188	0x3eb30a44	0.3496877
189	0xbe6b5c59	-0.22984447
190	0xbeb0e3a2	-0.3454867
191	0xbaabe201	-0.0013113619
192	0x3d880389	0.06641299
193	0xbe9ff881	-0.3124428
194	0xbc54f0ad	-0.012996835
195	0x3e6f635e	0.2337775
196	0x3eb77e0d	0.35838357
197	0xbe73177a	-0.23739424
198	0x3e8d889c	0.27643287
199	0x3e90038b	0.28127703
200	0x3e9455d6	0.28971738
201	0xbcb34b06	-0.02188636
202	0xbeb693aa	-0.35659534
203	0x3dc484a0	0.09595609
204	0xbd4a99bc	-0.04946302
205	0x3eade0ff	0.3396072
206	0xbebba003	-0.36645517
207	0xbeb2dad6	-0.34932584
208	0xbe64bb5c	-0.22337097
209	0x3e89d8a6	0.26923102
210	0xbe5fb6d5	-0.21847089
211	0x3d01e048	0.031708032
212	0x3ee08cf6	0.43857545
213	0x3c758b89	0.014986881
214	0xbe078dac	-0.13237637
215	0xbd5d7266	-0.054064177
216	0x3dc79e57	0.09746998
217	0x3e8f85a2	0.2803164
218	0xbeb4bb25	-0.3529903
219	0xbed67ea3	-0.4189349
220	0x3e450c5a	0.19242993
221	0xbd66ee2e	-0.05637949
222	0x3eb80c6e	0.35946983
223	0x3da04aae	0.07826744
224	0xbebbf1c6	-0.36707896
225	0xba60ebd5	-0.00085800636
226	0x3e2b8ada	0.16752186
227	0x3e3366a5	0.17519625
228	0x3e8981ae	0.2685675
229	0xbe93b0e9	-0.2884591
230	0x3ba7f349	0.0051254374
231	0x3e558cde	0.20854518
232	0xbe05da0b	-0.13071458
233	0xbe832642	-0.25615126
234	0xbec0aab4	-0.37630236
235	0x3dc241c5	0.09485201
236	0xbe05ae3e	-0.1305475
237	0xbe78763c	-0.24263853
238	0xbe133c0a	-0.14378372
239	0x3edc82f4	0.4306866
240	0xbea3993e	-0.31952852
241	0xbed61599	-0.41813353
242	0xbee059a1	-0.4381838
243	0xbe9aed18	-0.30259013
244	0xbdf523e5	-0.11969737
245	0xbe54369f	-0.20723961
246	0xbe18f83d	-0.14938445
247	0x3d9b57ff	0.07585143
248	0x3e9cc6c6	0.30620402
249	0xbd01b238	-0.031664103
250	0xbdb9861a	-0.09058781
251	0x3d9920ce	0.0747696
252	0xbeb12b3d	-0.346033
253	0x3e8a24a8	0.26981091
254	0xbeb62d63	-0.35581502
255	0xbe97c77e	-0.29644388

transformer.encoder.layers.0.self_attn.out_proj.bias f4 [16]
0	0xbbc19b5f	-0.0059084143
1	0xbbfefdd1	-0.007781722
2	0x3b5c383f	0.0033602861
3	0x394aa940	0.00019327272
4	0x3bb1db19	0.00542773
5	0xbb60830a	-0.0034257793
6	0x3c089390	0.008335963
7	0xbb92d782	-0.004481257
8	0x3bb31ccb	0.005466079
9	0x3b34ede3	0.0027607612
10	0xb92c4fe5	-0.00016432961
11	0x3bcd410e	0.0062638586
12	0xbaffeade	-0.0019524952
13	0x398ad649	0.00026481066
14	0xbbce96cc	-0.0063045975
15	0x3bacca7e	0.0052731624

transformer.encoder.layers.0.linear1.weight f4 [64, 16]
0	0x3e327d5b	0.17430632
1	0x3e42c55b	0.19020598
2	0x3e5421ab	0.20715968
3	0x3d418d65	0.047253985
4	0xbe624532	-0.22096708
5	0x3dd3c337	0.10339969
6	0x3e81e5ff	0.25370786
7	0xbd84db7e	-0.06487177
8	0x3e249611	0.16072871
9	0xbc076769	-0.008264401
10	0xbd0131c4	-0.0315416
11	0xbe2ff07c	-0.17181581
12	0x3e4c0085	0.19922073
13	0x3e71d499	0.23616256
14	0xbd85cf00	-0.06533623
15	0xbdb4a240	-0.08820009
16	0xbd616b24	-0.055033818
17	0x3dd0cb31	0.10195006
18	0xbd42f918	-0.047600836
19	0x3e4abfa8	0.19799674
20	0xbd37d683	-0.04488231
21	0xbe46365d	-0.19356675
22	0xbe89b97b	-0.26899323
23	0x3da3dcc1	0.0800109
24	0xbdc63311	-0.09677709
25	0x3e8017c4	0.25018132
26	0x3e64afab	0.22332637
27	0xbd82bd31	-0.06383742
28	0x3e2f350d	0.17110081
29	0xbd0e9acf	-0.034815606
30	0x3e41a029	0.18908753
31	0xbd1909c2	-0.03736282
32	0xbe5219dd	-0.20517679
33	0x3ded70a8	0.11593753
34	0xbe2425eb	-0.1603009
35	0x3e6cb845	0.23117168
36	0xbe5c7e1c	-0.21532482
37	0x3c8cfa06	0.017209064
38	0x3e4bd711	0.1990626
39	0x3e450808	0.19241345
40	0xbddab418	-0.106788814
41	0x3e1abef9	0.15111913
42	0xbdb4608d	-0.08807478
43	0xbb847b9b	-0.004043055
44	0x3d207e2b	0.039182823
45	0x3e3ee051	0.18640257
46	0x3c208007	0.009796149
47	0x3e68138a	0.22663704
48	0x3e2cacbf	0.16862772
49	0x3e27679e	0.1634812
50	0xbc79a106	-0.015236145
51	0x3cc1897a	0.023625124
52	0x3d0d2d42	0.03446699
53	0x3e717efc	0.23583597
54	0x3de7a4a6	0.11310701
55	0x3c87dfe7	0.016586257
56	0x3c4f5df2	0.012656676
57	0x3d5a2ac2	0.053263433
58	0x3e14b7bf	0.14523219
59	0xbe116424	-0.14198357
60	0x3ce63e5d	0.028105909
61	0x3e791e5e	0.2432799
62	0xbcf9cc4b	-0.030492922
63	0x3d76300e	0.060104422
64	0xbdfbc207	-0.12292867
65	0x3e8c17a6	0.27361792
66	0x3d9340fe	0.07190131
67	0x3dde8983	0.10866072
68	0xbe8f0078	-0.27930045
69	0x3d2710dc	0.040787563
70	0xbdce454a	-0.100718096
71	0x3e83396d	0.2562975
72	0xbe0ce882	-0.1376057
73	0xbe1e85a0	-0.15480661
74	0x3e5acbb1	0.21366765
75	0xbdf002c0	-0.117192745
76	0xbe7ef25f	-0.24897145
77	0x3e65a19b	0.22424929
78	0xbe6571dd	-0.22406717
79	0x3dc2463b	0.09486052
80	0xbe3ef981	-0.18649866
81	0x3e3a3138	0.18182838
82	0xbe774186	-0.24146089
83	0xbe5a56df	-0.21322201
84	0xbe55a81c	-0.2086491
85	0xbe414afc	-0.1887626
86	0xbc92cd84	-0.017920263
87	0xbcf7797a	-0.030209292
88	0x3e6823d6	0.2266992
89	0x3d140ea5	0.03614678
90	0xbe2a38d2	-0.16623238
91	0x3dfabd35	0.122431196
92	0xbe2837c9	-0.1642753
93	0x3ca3d2e0	0.019998014
94	0xbe3bc2d3	-0.18336038
95	0x3e47d698	0.19515455
96	0x3e3aa3c0	0.18226528
97	0xbd8f5e90	-0.07000458
98	0x3dd1f183	0.10251143
99	0x3dfa868c	0.12232694
100	0xbd3e8898	-0.046516985
101	0x3df09f38	0.117491186
102	0xbe73d931	-0.2381332
103	0xbe29cf23	-0.16582923
104	0xbe8856fd	-0.26628867
105	0xbe32b408	-0.17451489
106	0x3dc2f28f	0.09518921
107	0xbe768583	-0.24074368
108	0xbe72ba58	-0.23703897
109	0x3e7c7e84	0.24657637
110	0xbe85040c	-0.2597965
111	0xbcbb58c0	-0.022869468
112	0xbe014b4a	-0.12626377
113	0xbe47bd77	-0.19505869
114	0xbde4927a	-0.11160751
115	0x3e55fab0	0.20896411
116	0x3d6fecb2	0.05857534
117	0x3d48ca6e	0.049021177
118	0xbc2f0b42	-0.010683836
119	0x3e0030e7	0.12518655
120	0x3e442025	0.19152887
121	0xbd9ad4ca	-0.075601175
122	0x3d59491e	0.053048246
123	0x3d8fe40d	0.07025919
124	0x3e41bdb9	0.1892003
125	0x3e45bb65	0.19309767
126	0x3ddb9373	0.10721483
127	0x3d0ff6e1	0.03514755
128	0xbe6c9d1e	-0.2310681
129	0x3e4218da	0.18954793
130	0x3e4f5577	0.20247446
131	0xbd8ffe7e	-0.070309624
132	0x3e40a20f	0.1881182
133	0xbdc9f697	-0.098614864
134	0x3e6999bc	0.22812551
135	0xbdf749e9	-0.12074644
136	0xbe636a1e	-0.22208449
137	0xbcfc446d	-0.030794347
138	0xbe11fc2e	-0.14256355
139	0xbde7f4ef	-0.11326014
140	0x3de39395	0.111121334
141	0x3e4b7f4d	0.1987278
142	0xbe8cc61e	-0.274949
143	0xbd0559b0	-0.032556236
144	0xbdc4aeb5	-0.09603635
145	0x3e0c6ece	0.13714144
146	0xbd9518b3	-0.072801016
147	0xbe06e705	-0.13174064
148	0xbe25d938	-0.16196144
149	0x3c9dd7c0	0.019267917
150	0xbd95d9b8	-0.07316917
151	0x3d345f72	0.044036336
152	0xbe39a537	-0.1812943
153	0x3e52bee6	0.20580634
154	0xbe2659f5	-0.16245253
155	0x3e3029f3	0.17203502
156	0xbc063e1a	-0.008193517
157	0x3df3e80f	0.11909496
158	0x3e859e69	0.2609742
159	0x3cc0f3a8	0.023553684
160	0x3d81ad48	0.06331879
161	0xbd9f079a	-0.07765122
162	0x3cb48863	0.02203769
163	0xbe2d397d	-0.16916461
164	0x3e889108	0.2667315
165	0x3e54e366	0.2078987
166	0xbd4828be	-0.04886698
167	0x3e3aad04	0.18230063
168	0xbe1373b5	-0.14399607
169	0xbe0b4f6f	-0.1360452
170	0xbdf2e682	-0.11860372
171	0xbe1a038f	-0.1504042
172	0xbe2cae06	-0.1686326
173	0x3e8aed5f	0.27134225
174	0x3e14a8ae	0.14517471
175	0x3e6c461b	0.23073618
176	0xbcf7f2bd	-0.030267114
177	0xbd024551	-0.031804387
178	0x3d8ab83c	0.06773421
179	0x3d9d0563	0.07667043
180	0xbd28205a	-0.041046478
181	0xbc98cbc6	-0.018651854
182	0x3e22912c	0.15875691
183	0xbb9351cf	-0.0044958363
184	0xbe729f9c	-0.23693699
185	0xbdce3a25	-0.10069684
186	0xbe7a74e5	-0.24458654
187	0xbd1db09c	-0.038498506
188	0xbe496520	-0.19667482
189	0xbd175c0a	-0.03695301
190	0xbe871f77	-0.26391193
191	0x3cf2e008	0.029647842
192	0xbdee7bad	-0.11644683
193	0x3df32bdf	0.11873602
194	0x3e03f4e3	0.12886386
195	0x3e39420e	0.18091604
196	0xbbb823da	-0.005619508
197	0x3e6a851e	0.22902343
198	0xbdc06e50	-0.093960404
199	0x3e7eae47	0.24871169
200	0x3c8ed29f	0.017434416
201	0x3e19cb4c	0.15018958
202	0x3d9d54d0	0.07682192
203	0x3ddc981d	0.10771201
204	0x3e5a3de5	0.21312673
205	0xbe5e6301	-0.21717454
206	0x3d43a035	0.047760207
207	0xbe1f11e6	-0.15534171
208	0xbe15334c	-0.1457035
209	0x3d3a9e24	0.04556097
210	0x3b884876	0.0041590286
211	0x3ce49cf0	0.027906865
212	0x3c430dd1	0.01190515
213	0x3d161ad7	0.03664669
214	0x3d4db0c9	0.050217424
215	0x3d652116	0.055939756
216	0xbc8cf854	-0.017208256
217	0xbdf0123b	-0.11722227
218	0xbd3e4654	-0.04645379
219	0xbe0caa8f	-0.13736938
220	0xba25a607	-0.00063189905
221	0xbdf02ade	-0.11726926
222	0x3c84b883	0.016201263
223	0x3e548039	0.20752038
224	0xbe579326	-0.21052226
225	0xbe271338	-0.16315925
226	0xbe2587bc	-0.1616506
227	0xbe47f25a	-0.19526044
228	0xbe794c48	-0.24345505
229	0x3bb6124b	0.00555638
230	0x3dd5a685	0.10432152
231	0xbd77dbcd	-0.060512353
232	0x3dfd76e2	0.12376191
233	0x3e026736	0.12734684
234	0x3d8a171f	0.06742691
235	0xbe736495	-0.23768838
236	0xbe5937f3	-0.21212749
237	0xbdd2465f	-0.102673285
238	0x3e20ae03	0.1569138
239	0x3d8e063b	0.06934782
240	0x3e260118	0.16211355
241	0xbdee84a1	-0.11646391
242	0xbe459fad	-0.19299193
243	0xbe2d1b87	-0.16905032
244	0xbdc18f61	-0.094511755
245	0x3e3bb187	0.1832944
246	0x3dad93f0	0.084754825
247	0xbe4c4be1	-0.1995082
248	0xbe0f1aef	-0.13975118
249	0x3a47b9cf	0.0007618935
250	0x3d854cc5	0.06508783
251	0xbe59c155	-0.21265157
252	0x3df89a5a	0.12138815
253	0x3e4e74ab	0.20161693
254	0xbbbf46bc	-0.0058372896
255	0xbe33d9ea	-0.17563596

transformer.encoder.layers.0.linear1.bias f4 [64]
0	0xbe58d0cb	-0.21173398
1	0x3d3a277a	0.045447804
2	0x3dd4b218	0.10385531
3	0xbe508e81	-0.20366861
4	0x3e28ff4e	0.16503641
5	0xbdb654b8	-0.089028776
6	0x3ca15533	0.019693946
7	0x3e05fc9a	0.13084641
8	0x3d470158	0.048585266
9	0x3e34f33e	0.17670915
10	0xbd55c233	-0.052187156
11	0x3e6a7d64	0.22899395
12	0xbe0fbef2	-0.14037684
13	0xbdb9bfe4	-0.09069803
14	0xbe4ef0da	-0.20209065
15	0x3e26404d	0.16235466
16	0x3e303abe	0.17209908
17	0xbe03c263	-0.12867121
18	0x3e3e60d5	0.18591626
19	0x3e7fe04c	0.24987906
20	0xbdcb40ca	-0.09924467
21	0xbe3209e1	-0.17386581
22	0x3d974920	0.07386994
23	0xbd3cc490	-0.046085894
24	0x3e399195	0.18121941
25	0xbe5a2046	-0.21301374
26	0x3ddf8da8	0.10915691
27	0x3e42f425	0.19038446
28	0xbdfb6da3	-0.12276771
29	0xbe6429ad	-0.22281523
30	0x3c3fdce9	0.011710384
31	0x3d96e4f7	0.0736789
32	0x3cb1bc09	0.021696107
33	0xbd9f1303	-0.07767298
34	0x3e281ace	0.16416475
35	0xbe6917fe	-0.22763059
36	0x3e2d4531	0.16920926
37	0x3e3ef477	0.18647943
38	0xbdcb8321	-0.0993712
39	0xbe78467c	-0.24245638
40	0x3e0d7be1	0.13816787
41	0x3e80bb11	0.2514272
42	0x3d884ce3	0.0665529
43	0xbd768838	-0.060188502
44	0x3e0d9914	0.13827926
45	0x3e41d73e	0.18929765
46	0x3e740895	0.23831399
47	0xbe3ed64e	-0.18636438
48	0xbdbdf1e8	-0.092746556
49	0xbda0ba47	-0.078480296
50	0xbdfb91c3	-0.12283661
51	0xbd539c1a	-0.051662542
52	0xbe384cfb	-0.17998116
53	0x3dc94b68	0.09828836
54	0xbd981fda	-0.0742795
55	0x3e6aa12b	0.22913043
56	0x3e192208	0.14954388
57	0xbe1c0730	-0.15237117
58	0xbe2ee1a0	-0.17078257
59	0xbca51bbe	-0.02015483
60	0xbe704601	-0.23464204
61	0x3dee45dc	0.11634418
62	0xbe10e4e9	-0.14149822
63	0x3da8bf5c	0.08239624

transformer.encoder.layers.0.linear2.weight f4 [16, 64]
0	0xbe1872c1	-0.14887525
1	0x3e2b2ea6	0.16717014
2	0x3e5258ab	0.20541637
3	0x3e081237	0.13288198
4	0x3e1636ed	0.1466939
5	0x3dd561e4	0.10419062
6	0xbe33ba4d	-0.17551537
7	0xbdb3d008	-0.08779913
8	0xbdded60e	-0.108806714
9	0xbe5ad251	-0.21369292
10	0xbe0b460f	-0.13600944
11	0xbde34ff0	-0.11099231
12	0x3ca062b3	0.019578313
13	0x3cf3d9fa	0.029767025
14	0xbe165d71	-0.14684083
15	0x3e21119a	0.1572937
16	0x3d46bd1a	0.048520185
17	0xbe217322	-0.15766576
18	0x3e575e34	0.2103203
19	0xbe1ef13f	-0.15521716
20	0x3e574eec	0.210262
21	0x3e3e3472	0.18574694
22	0xbd99837f	-0.07495784
23	0x3e609af6	0.21934113
24	0xbe3a76f4	-0.1820944
25	0xbe20a4bb	-0.1568784
26	0xbdc0df47	-0.09417587
27	0xbad992ab	-0.0016599497
28	0xbdf4b277	-0.11948102
29	0xbe803b4d	-0.25045243
30	0xbd08092d	-0.033211876
31	0xbe54300b	-0.20721452
32	0x3e14c3d4	0.14527828
33	0xbe452a87	-0.19254504
34	0xbe78c753	-0.24294786
35	0x3e827827	0.25482294
36	0x3e1a25fa	0.1505355
37	0xbe30312a	-0.17206255
38	0xbe42eb45	-0.1903506
39	0x3e40ff2f	0.18847345
40	0x3e271cf4	0.16319638
41	0xbe699c76	-0.22813591
42	0x3d4932e9	0.049120817
43	0x3e7df3c0	0.24800014
44	0xbe8cbf95	-0.27489915
45	0xbe0fad52	-0.1403096
46	0x3d85264f	0.065014474
47	0xbe8a559f	-0.2701845
48	0xbe2848c8	-0.16434014
49	0xbbdb8a5c	-0.0066998433
50	0x3c0476a2	0.008084925
51	0xbe5ff3f7	-0.21870409
52	0xbe738194	-0.23779899
53	0xbd9d3839	-0.07676739
54	0xbe0638bc	-0.1310758
55	0xbe829449	-0.25503758
56	0xbe1b2fcf	-0.15154956
57	0xbcb01f18	-0.021499202
58	0x3e3e3581	0.18575098
59	0x3e318371	0.17335297
60	0xbe097c79	-0.13426389
61	0xbe8d3458	-0.27578998
62	0x3e11596d	0.1419427
63	0xbddb98b0	-0.10722482
64	0x3e5718e9	0.21005596
65	0x3e1591f2	0.14606455
66	0x3df4344c	0.11924037
67	0x3d648671	0.055792276
68	0xbe72edf8	-0.2372359
69	0xbe550f5a	-0.20806637
70	0x3dcc5463	0.09977033
71	0xbdc83dc9	-0.097774096
72	0x3e33e910	0.17569375
73	0x3e4ca542	0.19984916
74	0xbe0d9da9	-0.13829674
75	0x3e6fb63c	0.2340936
76	0x3dc21b8b	0.0947791
77	0xbd620b82	-0.055186756
78	0x3cf08bf6	0.029363614
79	0x3d98d0e7	0.0746172
80	0xbe267484	-0.16255385
81	0x3d951fdf	0.072814696
82	0xbe37d7ba	-0.17953387
83	0x3c4c0f58	0.01245483
84	0x3deb6db9	0.11495537
85	0x3e05461a	0.13015023
86	0xbbd09f25	-0.0063666278
87	0x3e1b4a1f	0.15164994
88	0xbe49c0a2	-0.1970239
89	0x39362378	0.00017370086
90	0x3e3c17c5	0.18368442
91	0xbd6e0f44	-0.058120027
92	0x3dda006e	0.10644613
93	0xbe24f276	-0.16108117
94	0xbe20c75a	-0.15701047
95	0xbd9c7915	-0.07640282
96	0x3e45bd43	0.19310479
97	0x3da4a5fe	0.08039473
98	0xbe7e874f	-0.24856304
99	0xbe7bdfcc	-0.2459709
100	0xbdaac358	-0.0833804
101	0xbe020611	-0.12697627
102	0xbe6ba4b7	-0.23012052
103	0x3e74ad30	0.23894191
104	0xbd11fece	-0.03564339
105	0xbe4be2c9	-0.1991073
106	0x3dd11cd5	0.102105774
107	0x3d45e5bf	0.048314806
108	0xbe42f02d	-0.19036932
109	0x3e579777	0.21053873
110	0xbd7c65ff	-0.06162071
111	0xbe18e616	-0.14931521
112	0xbe0efb21	-0.13962986
113	0xbd5ecf15	-0.054396708
114	0xbe2a5c91	-0.16636874
115	0x3e78e0a5	0.24304445
116	0xbc7b9d4a	-0.015357325
117	0xbd16ccd3	-0.03681643
118	0x3dce1656	0.10062854
119	0x3d2fcf23	0.04292215
120	0x3da138da	0.07872172
121	0xbb690bd6	-0.0035560033
122	0x3d8f823b	0.07007261
123	0xbde3a501	-0.11115456
124	0x3c009f15	0.007850428
125	0x3de705de	0.11280416
126	0x3e870b29	0.26375702
127	0xbe0bc90a	-0.13650909
128	0xbc29e82f	-0.010370298
129	0xbe38f246	-0.1806117
130	0x3dd03721	0.10166765
131	0xbdfbc05d	-0.1229255
132	0x3e5633d5	0.2091821
133	0xbe80bb68	-0.2514298
134	0xbe917509	-0.28409603
135	0xbe6f534d	-0.2337162
136	0xbe60eb1e	-0.2196469
137	0xbdef1aa2	-0.11675002
138	0x3d090778	0.03345439
139	0x3e46280c	0.19351214
140	0x3e76e038	0.2410897
141	0xbe828e13	-0.2549902
142	0xbdc0ad14	-0.09408012
143	0x3e1f3069	0.15545811
144	0xbcba13f6	-0.022714596
145	0xbdc8a9a1	-0.09797979
146	0x3e3de91b	0.18545954
147	0x3e02528d	0.12726803
148	0x3e692f55	0.22771962
149	0xbded8e6c	-0.115994304
150	0x3e75b80a	0.23995987
151	0x3d235bc3	0.039882433
152	0x3e8caaad	0.27473965
153	0x3deda033	0.11602821
154	0xbe695a3f	-0.22788332
155	0xbd836041	-0.06414843
156	0xbe3443e9	-0.1760403
157	0xbe2e1c61	-0.17003013
158	0xbe8439d3	-0.25825366
159	0x3e321fac	0.17394894
160	0x3d2a3442	0.041553743
161	0xbe7ec59e	-0.24880072
162	0xbd8b4282	-0.06799795
163	0xbe36c711	-0.17849375
164	0x3e91f18d	0.285046
165	0xbde74227	-0.112919144
166	0xbd702d14	-0.05863674
167	0x3e88f639	0.26750353
168	0xbddcba96	-0.10777776
169	0x3dd932c7	0.10605388
170	0x3c658586	0.014008885
171	0xbe4f0afe	-0.20219037
172	0x3e1c8f72	0.15289095
173	0x3da1b385	0.07895569
174	0xbe7d222d	-0.24720068
175	0x3e5953c8	0.21223366
176	0xbd64722a	-0.055772938
177	0xbd85e9e0	-0.06538749
178	0x3e4baa29	0.1988913
179	0x3e4e37cd	0.20138474
180	0xbe55ff27	-0.20898114
181	0x3e19356c	0.14961785
182	0x3c9d3ce1	0.019194068
183	0x3e237408	0.15962231
184	0x3e302229	0.17200531
185	0x3e25d140	0.16193104
186	0xbdf7c143	-0.120974086
187	0x3ca99913	0.020702874
188	0x3e84898f	0.258862
189	0x3e7b66d0	0.24550939
190	0xbd9d16ec	-0.076703876
191	0xbe315f8c	-0.17321604
192	0xbd240ca9	-0.040051136
193	0x3e4707cc	0.19436568
194	0x3d514c97	0.051098432
195	0x3bfb0546	0.0076605408
196	0xbd1e931e	-0.03871452
197	0xbdfa399b	-0.122180186
198	0xbdb1e399	-0.08685989
199	0xbe73707b	-0.23773377
200	0x3e86d0bc	0.26331127
201	0x3c5bd7b6	0.013418129
202	0x3e322f52	0.17400864
203	0x3e1b9bdf	0.15196179
204	0x3da7019c	0.08154604
205	0x3d69d55e	0.05708825
206	0x3e479c55	0.1949323
207	0x3cdf4c19	0.027257966
208	0x3e3f47b0	0.1867969
209	0x3e4cade0	0.19988203
210	0xbe4c418c	-0.19946879
211	0x3d88a260	0.066715956
212	0x3e421f29	0.18957199
213	0xbdf23d71	-0.11828125
214	0x3d43f11a	0.047837354
215	0xbe1f65eb	-0.15566222
216	0x3e675fef	0.2259519
217	0xbe8b9755	-0.27263895
218	0x3d811344	0.06302503
219	0x3e4e362d	0.20137854
220	0x3de3f6d4	0.11131063
221	0xbe8429c4	-0.25813115
222	0x3d927d94	0.071528584
223	0xbd850c29	-0.0649646
224	0xbdc16d02	-0.0944462
225	0x3e777992	0.24167469
226	0x3ca7b039	0.020469772
227	0x3e428287	0.18995105
228	0xbe0aa600	-0.13539886
229	0xbd37d22c	-0.04487817
230	0x3e523978	0.20529735
231	0xbe650f19	-0.2236904
232	0xbe4dc1f2	-0.20093516
233	0x3e77e955	0.24210103
234	0x3e35c8a7	0.17752324
235	0x3e862584	0.26200497
236	0x3e40cbc9	0.18827738
237	0x3dff838e	0.12476264
238	0x3e52f0cb	0.20599668
239	0x3e8cf592	0.27531105
240	0x3e3d388c	0.18478602
241	0xbe1cb9b1	-0.1530521
242	0xbc920e30	-0.01782903
243	0xbd1c052b	-0.038090866
244	0x3bd711d2	0.0065634036
245	0xbe88e57b	-0.2673758
246	0x3e86c993	0.26325664
247	0x3e05c296	0.1306251
248	0x3c1b68c1	0.0094854245
249	0x3dd191bb	0.10232874
250	0x3ccc224d	0.0249187
251	0xbe1cbe86	-0.15307054
252	0xbe7abdd8	-0.24486482
253	0x3c0d768b	0.00863422
254	0x3e43aaf9	0.1910819
255	0x3e40ea8f	0.18839477

transformer.encoder.layers.0.linear2.bias f4 [16]
0	0xbdbb77a6	-0.091536805
1	0xbde0ef34	-0.109831244
2	0x3c26a5d3	0.0101713715
3	0x3dcf0078	0.10107511
4	0xbd90d95b	-0.07072707
5	0x3cc9f062	0.024650756
6	0x3c8b5954	0.017010368
7	0xbd9b3971	-0.075793155
8	0x3d315fcf	0.04330426
9	0x3d5b0e6f	0.05348056
10	0xbceed13e	-0.029152509
11	0xbdd74dd5	-0.10512892
12	0x3dc825a2	0.09772803
13	0x3dfa67ef	0.12226855
14	0x3d28c6ae	0.0412051
15	0xbd55be88	-0.052183658

transformer.encoder.layers.0.norm1.weight f4 [16]
0	0x3f7e0413	0.99224967
1	0x3f7dfbe0	0.99212456
2	0x3f7f6625	0.99765235
3	0x3f80856e	1.004072
4	0x3f7d3d16	0.98921335
5	0x3f809165	1.0044371
6	0x3f81090f	1.008089
7	0x3f80f70c	1.0075393
8	0x3f81bfc7	1.0136651
9	0x3f8137ae	1.0095117
10	0x3f80225c	1.0010486
11	0x3f7f661b	0.99765176
12	0x3f7cc5ca	0.987393
13	0x3f808b2c	1.0042472
14	0x3f800cfd	1.0003964
15	0x3f810ae3	1.0081447

transformer.encoder.layers.0.norm1.bias f4 [16]
0	0xbc03ef8b	-0.008052717
1	0xbc106b11	-0.008814589
2	0x3bc4a3e2	0.0060009817
3	0xbaf8c455	-0.001897941
4	0x3be707b2	0.007050478
5	0xbbde32ac	-0.006780943
6	0x3c378998	0.0112022385
7	0xbbad3711	-0.0052861054
8	0x3b6ed430	0.0036442392
9	0x3b060587	0.0020450072
10	0xb9cbbaa5	-0.00038858238
11	0x3bea1d35	0.007144595
12	0xbc54fad7	-0.012999258
13	0xbb32ec96	-0.002730166
14	0xbc2186b7	-0.009858779
15	0x3bf0e8d8	0.007351976

transformer.encoder.layers.0.norm2.weight f4 [16]
0	0x3f7e0a97	0.9923491
1	0x3f7d5ae5	0.9896682
2	0x3f819ab8	1.0125341
3	0x3f7fa871	0.99866396
4	0x3f7d5429	0.98956543
5	0x3f80e25e	1.0069082
6	0x3f80255d	1.0011402
7	0x3f80e781	1.0070649
8	0x3f806cf1	1.0033246
9	0x3f80be82	1.0058138
10	0x3f7f1c28	0.9965234
11	0x3f7e3bf9	0.9931026
12	0x3f7f4e42	0.99728787
13	0x3f807641	1.0036088
14	0x3f7ce099	0.9878021
15	0x3f8106dd	1.008022

transformer.encoder.layers.0.norm2.bias f4 [16]
0	0xbc087a6f	-0.008329972
1	0xbc1f783e	-0.009733258
2	0x3c2a89a8	0.010408796
3	0xbb2a3785	-0.0025973034
4	0x3be7c861	0.0070734476
5	0xbbe48b68	-0.0069746263
6	0x3c059da3	0.008155259
7	0xbbc6d07e	-0.0060673347
8	0xbae11db6	-0.0017174992
9	0x3b4ac303	0.003093899
10	0x3c2998b2	0.010351347
11	0x3bdd7e01	0.0067594056
12	0x3b13c066	0.0022545098
13	0xbab43ab9	-0.0013750411
14	0xbbf17930	-0.007369183
15	0x3be93b56	0.007117669
